node {
  name: "is_training/Initializer/Const"
  op: "Const"
  attr {
    key: "_class"
    value {
      list {
        s: "loc:@is_training"
      }
    }
  }
  attr {
    key: "dtype"
    value {
      type: DT_BOOL
    }
  }
  attr {
    key: "value"
    value {
      tensor {
        dtype: DT_BOOL
        tensor_shape {
        }
        bool_val: false
      }
    }
  }
}
node {
  name: "is_training"
  op: "VariableV2"
  attr {
    key: "_class"
    value {
      list {
        s: "loc:@is_training"
      }
    }
  }
  attr {
    key: "container"
    value {
      s: ""
    }
  }
  attr {
    key: "dtype"
    value {
      type: DT_BOOL
    }
  }
  attr {
    key: "shape"
    value {
      shape {
      }
    }
  }
  attr {
    key: "shared_name"
    value {
      s: ""
    }
  }
}
node {
  name: "is_training/Assign"
  op: "Assign"
  input: "is_training"
  input: "is_training/Initializer/Const"
  attr {
    key: "T"
    value {
      type: DT_BOOL
    }
  }
  attr {
    key: "_class"
    value {
      list {
        s: "loc:@is_training"
      }
    }
  }
  attr {
    key: "use_locking"
    value {
      b: true
    }
  }
  attr {
    key: "validate_shape"
    value {
      b: true
    }
  }
}
node {
  name: "is_training/read"
  op: "Identity"
  input: "is_training"
  attr {
    key: "T"
    value {
      type: DT_BOOL
    }
  }
  attr {
    key: "_class"
    value {
      list {
        s: "loc:@is_training"
      }
    }
  }
}
node {
  name: "Assign/value"
  op: "Const"
  attr {
    key: "dtype"
    value {
      type: DT_BOOL
    }
  }
  attr {
    key: "value"
    value {
      tensor {
        dtype: DT_BOOL
        tensor_shape {
        }
        bool_val: true
      }
    }
  }
}
node {
  name: "Assign"
  op: "Assign"
  input: "is_training"
  input: "Assign/value"
  attr {
    key: "T"
    value {
      type: DT_BOOL
    }
  }
  attr {
    key: "_class"
    value {
      list {
        s: "loc:@is_training"
      }
    }
  }
  attr {
    key: "use_locking"
    value {
      b: true
    }
  }
  attr {
    key: "validate_shape"
    value {
      b: true
    }
  }
}
node {
  name: "Assign_1/value"
  op: "Const"
  attr {
    key: "dtype"
    value {
      type: DT_BOOL
    }
  }
  attr {
    key: "value"
    value {
      tensor {
        dtype: DT_BOOL
        tensor_shape {
        }
        bool_val: false
      }
    }
  }
}
node {
  name: "Assign_1"
  op: "Assign"
  input: "is_training"
  input: "Assign_1/value"
  attr {
    key: "T"
    value {
      type: DT_BOOL
    }
  }
  attr {
    key: "_class"
    value {
      list {
        s: "loc:@is_training"
      }
    }
  }
  attr {
    key: "use_locking"
    value {
      b: true
    }
  }
  attr {
    key: "validate_shape"
    value {
      b: true
    }
  }
}
node {
  name: "input/X"
  op: "Placeholder"
  attr {
    key: "dtype"
    value {
      type: DT_FLOAT
    }
  }
  attr {
    key: "shape"
    value {
      shape {
        dim {
          size: -1
        }
        dim {
          size: 32
        }
        dim {
          size: 32
        }
        dim {
          size: 1
        }
      }
    }
  }
}
node {
  name: "Conv2D/W/Initializer/random_uniform/shape"
  op: "Const"
  attr {
    key: "_class"
    value {
      list {
        s: "loc:@Conv2D/W"
      }
    }
  }
  attr {
    key: "dtype"
    value {
      type: DT_INT32
    }
  }
  attr {
    key: "value"
    value {
      tensor {
        dtype: DT_INT32
        tensor_shape {
          dim {
            size: 4
          }
        }
        tensor_content: "\002\000\000\000\002\000\000\000\001\000\000\000 \000\000\000"
      }
    }
  }
}
node {
  name: "Conv2D/W/Initializer/random_uniform/min"
  op: "Const"
  attr {
    key: "_class"
    value {
      list {
        s: "loc:@Conv2D/W"
      }
    }
  }
  attr {
    key: "dtype"
    value {
      type: DT_FLOAT
    }
  }
  attr {
    key: "value"
    value {
      tensor {
        dtype: DT_FLOAT
        tensor_shape {
        }
        float_val: -0.8660253882408142
      }
    }
  }
}
node {
  name: "Conv2D/W/Initializer/random_uniform/max"
  op: "Const"
  attr {
    key: "_class"
    value {
      list {
        s: "loc:@Conv2D/W"
      }
    }
  }
  attr {
    key: "dtype"
    value {
      type: DT_FLOAT
    }
  }
  attr {
    key: "value"
    value {
      tensor {
        dtype: DT_FLOAT
        tensor_shape {
        }
        float_val: 0.8660253882408142
      }
    }
  }
}
node {
  name: "Conv2D/W/Initializer/random_uniform/RandomUniform"
  op: "RandomUniform"
  input: "Conv2D/W/Initializer/random_uniform/shape"
  attr {
    key: "T"
    value {
      type: DT_INT32
    }
  }
  attr {
    key: "_class"
    value {
      list {
        s: "loc:@Conv2D/W"
      }
    }
  }
  attr {
    key: "dtype"
    value {
      type: DT_FLOAT
    }
  }
  attr {
    key: "seed"
    value {
      i: 0
    }
  }
  attr {
    key: "seed2"
    value {
      i: 0
    }
  }
}
node {
  name: "Conv2D/W/Initializer/random_uniform/sub"
  op: "Sub"
  input: "Conv2D/W/Initializer/random_uniform/max"
  input: "Conv2D/W/Initializer/random_uniform/min"
  attr {
    key: "T"
    value {
      type: DT_FLOAT
    }
  }
  attr {
    key: "_class"
    value {
      list {
        s: "loc:@Conv2D/W"
      }
    }
  }
}
node {
  name: "Conv2D/W/Initializer/random_uniform/mul"
  op: "Mul"
  input: "Conv2D/W/Initializer/random_uniform/RandomUniform"
  input: "Conv2D/W/Initializer/random_uniform/sub"
  attr {
    key: "T"
    value {
      type: DT_FLOAT
    }
  }
  attr {
    key: "_class"
    value {
      list {
        s: "loc:@Conv2D/W"
      }
    }
  }
}
node {
  name: "Conv2D/W/Initializer/random_uniform"
  op: "Add"
  input: "Conv2D/W/Initializer/random_uniform/mul"
  input: "Conv2D/W/Initializer/random_uniform/min"
  attr {
    key: "T"
    value {
      type: DT_FLOAT
    }
  }
  attr {
    key: "_class"
    value {
      list {
        s: "loc:@Conv2D/W"
      }
    }
  }
}
node {
  name: "Conv2D/W"
  op: "VariableV2"
  attr {
    key: "_class"
    value {
      list {
        s: "loc:@Conv2D/W"
      }
    }
  }
  attr {
    key: "container"
    value {
      s: ""
    }
  }
  attr {
    key: "dtype"
    value {
      type: DT_FLOAT
    }
  }
  attr {
    key: "shape"
    value {
      shape {
        dim {
          size: 2
        }
        dim {
          size: 2
        }
        dim {
          size: 1
        }
        dim {
          size: 32
        }
      }
    }
  }
  attr {
    key: "shared_name"
    value {
      s: ""
    }
  }
}
node {
  name: "Conv2D/W/Assign"
  op: "Assign"
  input: "Conv2D/W"
  input: "Conv2D/W/Initializer/random_uniform"
  attr {
    key: "T"
    value {
      type: DT_FLOAT
    }
  }
  attr {
    key: "_class"
    value {
      list {
        s: "loc:@Conv2D/W"
      }
    }
  }
  attr {
    key: "use_locking"
    value {
      b: true
    }
  }
  attr {
    key: "validate_shape"
    value {
      b: true
    }
  }
}
node {
  name: "Conv2D/W/read"
  op: "Identity"
  input: "Conv2D/W"
  attr {
    key: "T"
    value {
      type: DT_FLOAT
    }
  }
  attr {
    key: "_class"
    value {
      list {
        s: "loc:@Conv2D/W"
      }
    }
  }
}
node {
  name: "Conv2D/b/Initializer/Const"
  op: "Const"
  attr {
    key: "_class"
    value {
      list {
        s: "loc:@Conv2D/b"
      }
    }
  }
  attr {
    key: "dtype"
    value {
      type: DT_FLOAT
    }
  }
  attr {
    key: "value"
    value {
      tensor {
        dtype: DT_FLOAT
        tensor_shape {
          dim {
            size: 32
          }
        }
        float_val: 0.0
      }
    }
  }
}
node {
  name: "Conv2D/b"
  op: "VariableV2"
  attr {
    key: "_class"
    value {
      list {
        s: "loc:@Conv2D/b"
      }
    }
  }
  attr {
    key: "container"
    value {
      s: ""
    }
  }
  attr {
    key: "dtype"
    value {
      type: DT_FLOAT
    }
  }
  attr {
    key: "shape"
    value {
      shape {
        dim {
          size: 32
        }
      }
    }
  }
  attr {
    key: "shared_name"
    value {
      s: ""
    }
  }
}
node {
  name: "Conv2D/b/Assign"
  op: "Assign"
  input: "Conv2D/b"
  input: "Conv2D/b/Initializer/Const"
  attr {
    key: "T"
    value {
      type: DT_FLOAT
    }
  }
  attr {
    key: "_class"
    value {
      list {
        s: "loc:@Conv2D/b"
      }
    }
  }
  attr {
    key: "use_locking"
    value {
      b: true
    }
  }
  attr {
    key: "validate_shape"
    value {
      b: true
    }
  }
}
node {
  name: "Conv2D/b/read"
  op: "Identity"
  input: "Conv2D/b"
  attr {
    key: "T"
    value {
      type: DT_FLOAT
    }
  }
  attr {
    key: "_class"
    value {
      list {
        s: "loc:@Conv2D/b"
      }
    }
  }
}
node {
  name: "Conv2D/Conv2D"
  op: "Conv2D"
  input: "input/X"
  input: "Conv2D/W/read"
  attr {
    key: "T"
    value {
      type: DT_FLOAT
    }
  }
  attr {
    key: "data_format"
    value {
      s: "NHWC"
    }
  }
  attr {
    key: "padding"
    value {
      s: "SAME"
    }
  }
  attr {
    key: "strides"
    value {
      list {
        i: 1
        i: 1
        i: 1
        i: 1
      }
    }
  }
  attr {
    key: "use_cudnn_on_gpu"
    value {
      b: true
    }
  }
}
node {
  name: "Conv2D/BiasAdd"
  op: "BiasAdd"
  input: "Conv2D/Conv2D"
  input: "Conv2D/b/read"
  attr {
    key: "T"
    value {
      type: DT_FLOAT
    }
  }
  attr {
    key: "data_format"
    value {
      s: "NHWC"
    }
  }
}
node {
  name: "Conv2D/Relu"
  op: "Relu"
  input: "Conv2D/BiasAdd"
  attr {
    key: "T"
    value {
      type: DT_FLOAT
    }
  }
}
node {
  name: "MaxPool2D/MaxPool"
  op: "MaxPool"
  input: "Conv2D/Relu"
  attr {
    key: "T"
    value {
      type: DT_FLOAT
    }
  }
  attr {
    key: "data_format"
    value {
      s: "NHWC"
    }
  }
  attr {
    key: "ksize"
    value {
      list {
        i: 1
        i: 2
        i: 2
        i: 1
      }
    }
  }
  attr {
    key: "padding"
    value {
      s: "SAME"
    }
  }
  attr {
    key: "strides"
    value {
      list {
        i: 1
        i: 2
        i: 2
        i: 1
      }
    }
  }
}
node {
  name: "Conv2D_1/W/Initializer/random_uniform/shape"
  op: "Const"
  attr {
    key: "_class"
    value {
      list {
        s: "loc:@Conv2D_1/W"
      }
    }
  }
  attr {
    key: "dtype"
    value {
      type: DT_INT32
    }
  }
  attr {
    key: "value"
    value {
      tensor {
        dtype: DT_INT32
        tensor_shape {
          dim {
            size: 4
          }
        }
        tensor_content: "\002\000\000\000\002\000\000\000 \000\000\000@\000\000\000"
      }
    }
  }
}
node {
  name: "Conv2D_1/W/Initializer/random_uniform/min"
  op: "Const"
  attr {
    key: "_class"
    value {
      list {
        s: "loc:@Conv2D_1/W"
      }
    }
  }
  attr {
    key: "dtype"
    value {
      type: DT_FLOAT
    }
  }
  attr {
    key: "value"
    value {
      tensor {
        dtype: DT_FLOAT
        tensor_shape {
        }
        float_val: -0.1530931144952774
      }
    }
  }
}
node {
  name: "Conv2D_1/W/Initializer/random_uniform/max"
  op: "Const"
  attr {
    key: "_class"
    value {
      list {
        s: "loc:@Conv2D_1/W"
      }
    }
  }
  attr {
    key: "dtype"
    value {
      type: DT_FLOAT
    }
  }
  attr {
    key: "value"
    value {
      tensor {
        dtype: DT_FLOAT
        tensor_shape {
        }
        float_val: 0.1530931144952774
      }
    }
  }
}
node {
  name: "Conv2D_1/W/Initializer/random_uniform/RandomUniform"
  op: "RandomUniform"
  input: "Conv2D_1/W/Initializer/random_uniform/shape"
  attr {
    key: "T"
    value {
      type: DT_INT32
    }
  }
  attr {
    key: "_class"
    value {
      list {
        s: "loc:@Conv2D_1/W"
      }
    }
  }
  attr {
    key: "dtype"
    value {
      type: DT_FLOAT
    }
  }
  attr {
    key: "seed"
    value {
      i: 0
    }
  }
  attr {
    key: "seed2"
    value {
      i: 0
    }
  }
}
node {
  name: "Conv2D_1/W/Initializer/random_uniform/sub"
  op: "Sub"
  input: "Conv2D_1/W/Initializer/random_uniform/max"
  input: "Conv2D_1/W/Initializer/random_uniform/min"
  attr {
    key: "T"
    value {
      type: DT_FLOAT
    }
  }
  attr {
    key: "_class"
    value {
      list {
        s: "loc:@Conv2D_1/W"
      }
    }
  }
}
node {
  name: "Conv2D_1/W/Initializer/random_uniform/mul"
  op: "Mul"
  input: "Conv2D_1/W/Initializer/random_uniform/RandomUniform"
  input: "Conv2D_1/W/Initializer/random_uniform/sub"
  attr {
    key: "T"
    value {
      type: DT_FLOAT
    }
  }
  attr {
    key: "_class"
    value {
      list {
        s: "loc:@Conv2D_1/W"
      }
    }
  }
}
node {
  name: "Conv2D_1/W/Initializer/random_uniform"
  op: "Add"
  input: "Conv2D_1/W/Initializer/random_uniform/mul"
  input: "Conv2D_1/W/Initializer/random_uniform/min"
  attr {
    key: "T"
    value {
      type: DT_FLOAT
    }
  }
  attr {
    key: "_class"
    value {
      list {
        s: "loc:@Conv2D_1/W"
      }
    }
  }
}
node {
  name: "Conv2D_1/W"
  op: "VariableV2"
  attr {
    key: "_class"
    value {
      list {
        s: "loc:@Conv2D_1/W"
      }
    }
  }
  attr {
    key: "container"
    value {
      s: ""
    }
  }
  attr {
    key: "dtype"
    value {
      type: DT_FLOAT
    }
  }
  attr {
    key: "shape"
    value {
      shape {
        dim {
          size: 2
        }
        dim {
          size: 2
        }
        dim {
          size: 32
        }
        dim {
          size: 64
        }
      }
    }
  }
  attr {
    key: "shared_name"
    value {
      s: ""
    }
  }
}
node {
  name: "Conv2D_1/W/Assign"
  op: "Assign"
  input: "Conv2D_1/W"
  input: "Conv2D_1/W/Initializer/random_uniform"
  attr {
    key: "T"
    value {
      type: DT_FLOAT
    }
  }
  attr {
    key: "_class"
    value {
      list {
        s: "loc:@Conv2D_1/W"
      }
    }
  }
  attr {
    key: "use_locking"
    value {
      b: true
    }
  }
  attr {
    key: "validate_shape"
    value {
      b: true
    }
  }
}
node {
  name: "Conv2D_1/W/read"
  op: "Identity"
  input: "Conv2D_1/W"
  attr {
    key: "T"
    value {
      type: DT_FLOAT
    }
  }
  attr {
    key: "_class"
    value {
      list {
        s: "loc:@Conv2D_1/W"
      }
    }
  }
}
node {
  name: "Conv2D_1/b/Initializer/Const"
  op: "Const"
  attr {
    key: "_class"
    value {
      list {
        s: "loc:@Conv2D_1/b"
      }
    }
  }
  attr {
    key: "dtype"
    value {
      type: DT_FLOAT
    }
  }
  attr {
    key: "value"
    value {
      tensor {
        dtype: DT_FLOAT
        tensor_shape {
          dim {
            size: 64
          }
        }
        float_val: 0.0
      }
    }
  }
}
node {
  name: "Conv2D_1/b"
  op: "VariableV2"
  attr {
    key: "_class"
    value {
      list {
        s: "loc:@Conv2D_1/b"
      }
    }
  }
  attr {
    key: "container"
    value {
      s: ""
    }
  }
  attr {
    key: "dtype"
    value {
      type: DT_FLOAT
    }
  }
  attr {
    key: "shape"
    value {
      shape {
        dim {
          size: 64
        }
      }
    }
  }
  attr {
    key: "shared_name"
    value {
      s: ""
    }
  }
}
node {
  name: "Conv2D_1/b/Assign"
  op: "Assign"
  input: "Conv2D_1/b"
  input: "Conv2D_1/b/Initializer/Const"
  attr {
    key: "T"
    value {
      type: DT_FLOAT
    }
  }
  attr {
    key: "_class"
    value {
      list {
        s: "loc:@Conv2D_1/b"
      }
    }
  }
  attr {
    key: "use_locking"
    value {
      b: true
    }
  }
  attr {
    key: "validate_shape"
    value {
      b: true
    }
  }
}
node {
  name: "Conv2D_1/b/read"
  op: "Identity"
  input: "Conv2D_1/b"
  attr {
    key: "T"
    value {
      type: DT_FLOAT
    }
  }
  attr {
    key: "_class"
    value {
      list {
        s: "loc:@Conv2D_1/b"
      }
    }
  }
}
node {
  name: "Conv2D_1/Conv2D"
  op: "Conv2D"
  input: "MaxPool2D/MaxPool"
  input: "Conv2D_1/W/read"
  attr {
    key: "T"
    value {
      type: DT_FLOAT
    }
  }
  attr {
    key: "data_format"
    value {
      s: "NHWC"
    }
  }
  attr {
    key: "padding"
    value {
      s: "SAME"
    }
  }
  attr {
    key: "strides"
    value {
      list {
        i: 1
        i: 1
        i: 1
        i: 1
      }
    }
  }
  attr {
    key: "use_cudnn_on_gpu"
    value {
      b: true
    }
  }
}
node {
  name: "Conv2D_1/BiasAdd"
  op: "BiasAdd"
  input: "Conv2D_1/Conv2D"
  input: "Conv2D_1/b/read"
  attr {
    key: "T"
    value {
      type: DT_FLOAT
    }
  }
  attr {
    key: "data_format"
    value {
      s: "NHWC"
    }
  }
}
node {
  name: "Conv2D_1/Relu"
  op: "Relu"
  input: "Conv2D_1/BiasAdd"
  attr {
    key: "T"
    value {
      type: DT_FLOAT
    }
  }
}
node {
  name: "MaxPool2D_1/MaxPool"
  op: "MaxPool"
  input: "Conv2D_1/Relu"
  attr {
    key: "T"
    value {
      type: DT_FLOAT
    }
  }
  attr {
    key: "data_format"
    value {
      s: "NHWC"
    }
  }
  attr {
    key: "ksize"
    value {
      list {
        i: 1
        i: 2
        i: 2
        i: 1
      }
    }
  }
  attr {
    key: "padding"
    value {
      s: "SAME"
    }
  }
  attr {
    key: "strides"
    value {
      list {
        i: 1
        i: 2
        i: 2
        i: 1
      }
    }
  }
}
node {
  name: "Conv2D_2/W/Initializer/random_uniform/shape"
  op: "Const"
  attr {
    key: "_class"
    value {
      list {
        s: "loc:@Conv2D_2/W"
      }
    }
  }
  attr {
    key: "dtype"
    value {
      type: DT_INT32
    }
  }
  attr {
    key: "value"
    value {
      tensor {
        dtype: DT_INT32
        tensor_shape {
          dim {
            size: 4
          }
        }
        tensor_content: "\002\000\000\000\002\000\000\000@\000\000\000 \000\000\000"
      }
    }
  }
}
node {
  name: "Conv2D_2/W/Initializer/random_uniform/min"
  op: "Const"
  attr {
    key: "_class"
    value {
      list {
        s: "loc:@Conv2D_2/W"
      }
    }
  }
  attr {
    key: "dtype"
    value {
      type: DT_FLOAT
    }
  }
  attr {
    key: "value"
    value {
      tensor {
        dtype: DT_FLOAT
        tensor_shape {
        }
        float_val: -0.10825317353010178
      }
    }
  }
}
node {
  name: "Conv2D_2/W/Initializer/random_uniform/max"
  op: "Const"
  attr {
    key: "_class"
    value {
      list {
        s: "loc:@Conv2D_2/W"
      }
    }
  }
  attr {
    key: "dtype"
    value {
      type: DT_FLOAT
    }
  }
  attr {
    key: "value"
    value {
      tensor {
        dtype: DT_FLOAT
        tensor_shape {
        }
        float_val: 0.10825317353010178
      }
    }
  }
}
node {
  name: "Conv2D_2/W/Initializer/random_uniform/RandomUniform"
  op: "RandomUniform"
  input: "Conv2D_2/W/Initializer/random_uniform/shape"
  attr {
    key: "T"
    value {
      type: DT_INT32
    }
  }
  attr {
    key: "_class"
    value {
      list {
        s: "loc:@Conv2D_2/W"
      }
    }
  }
  attr {
    key: "dtype"
    value {
      type: DT_FLOAT
    }
  }
  attr {
    key: "seed"
    value {
      i: 0
    }
  }
  attr {
    key: "seed2"
    value {
      i: 0
    }
  }
}
node {
  name: "Conv2D_2/W/Initializer/random_uniform/sub"
  op: "Sub"
  input: "Conv2D_2/W/Initializer/random_uniform/max"
  input: "Conv2D_2/W/Initializer/random_uniform/min"
  attr {
    key: "T"
    value {
      type: DT_FLOAT
    }
  }
  attr {
    key: "_class"
    value {
      list {
        s: "loc:@Conv2D_2/W"
      }
    }
  }
}
node {
  name: "Conv2D_2/W/Initializer/random_uniform/mul"
  op: "Mul"
  input: "Conv2D_2/W/Initializer/random_uniform/RandomUniform"
  input: "Conv2D_2/W/Initializer/random_uniform/sub"
  attr {
    key: "T"
    value {
      type: DT_FLOAT
    }
  }
  attr {
    key: "_class"
    value {
      list {
        s: "loc:@Conv2D_2/W"
      }
    }
  }
}
node {
  name: "Conv2D_2/W/Initializer/random_uniform"
  op: "Add"
  input: "Conv2D_2/W/Initializer/random_uniform/mul"
  input: "Conv2D_2/W/Initializer/random_uniform/min"
  attr {
    key: "T"
    value {
      type: DT_FLOAT
    }
  }
  attr {
    key: "_class"
    value {
      list {
        s: "loc:@Conv2D_2/W"
      }
    }
  }
}
node {
  name: "Conv2D_2/W"
  op: "VariableV2"
  attr {
    key: "_class"
    value {
      list {
        s: "loc:@Conv2D_2/W"
      }
    }
  }
  attr {
    key: "container"
    value {
      s: ""
    }
  }
  attr {
    key: "dtype"
    value {
      type: DT_FLOAT
    }
  }
  attr {
    key: "shape"
    value {
      shape {
        dim {
          size: 2
        }
        dim {
          size: 2
        }
        dim {
          size: 64
        }
        dim {
          size: 32
        }
      }
    }
  }
  attr {
    key: "shared_name"
    value {
      s: ""
    }
  }
}
node {
  name: "Conv2D_2/W/Assign"
  op: "Assign"
  input: "Conv2D_2/W"
  input: "Conv2D_2/W/Initializer/random_uniform"
  attr {
    key: "T"
    value {
      type: DT_FLOAT
    }
  }
  attr {
    key: "_class"
    value {
      list {
        s: "loc:@Conv2D_2/W"
      }
    }
  }
  attr {
    key: "use_locking"
    value {
      b: true
    }
  }
  attr {
    key: "validate_shape"
    value {
      b: true
    }
  }
}
node {
  name: "Conv2D_2/W/read"
  op: "Identity"
  input: "Conv2D_2/W"
  attr {
    key: "T"
    value {
      type: DT_FLOAT
    }
  }
  attr {
    key: "_class"
    value {
      list {
        s: "loc:@Conv2D_2/W"
      }
    }
  }
}
node {
  name: "Conv2D_2/b/Initializer/Const"
  op: "Const"
  attr {
    key: "_class"
    value {
      list {
        s: "loc:@Conv2D_2/b"
      }
    }
  }
  attr {
    key: "dtype"
    value {
      type: DT_FLOAT
    }
  }
  attr {
    key: "value"
    value {
      tensor {
        dtype: DT_FLOAT
        tensor_shape {
          dim {
            size: 32
          }
        }
        float_val: 0.0
      }
    }
  }
}
node {
  name: "Conv2D_2/b"
  op: "VariableV2"
  attr {
    key: "_class"
    value {
      list {
        s: "loc:@Conv2D_2/b"
      }
    }
  }
  attr {
    key: "container"
    value {
      s: ""
    }
  }
  attr {
    key: "dtype"
    value {
      type: DT_FLOAT
    }
  }
  attr {
    key: "shape"
    value {
      shape {
        dim {
          size: 32
        }
      }
    }
  }
  attr {
    key: "shared_name"
    value {
      s: ""
    }
  }
}
node {
  name: "Conv2D_2/b/Assign"
  op: "Assign"
  input: "Conv2D_2/b"
  input: "Conv2D_2/b/Initializer/Const"
  attr {
    key: "T"
    value {
      type: DT_FLOAT
    }
  }
  attr {
    key: "_class"
    value {
      list {
        s: "loc:@Conv2D_2/b"
      }
    }
  }
  attr {
    key: "use_locking"
    value {
      b: true
    }
  }
  attr {
    key: "validate_shape"
    value {
      b: true
    }
  }
}
node {
  name: "Conv2D_2/b/read"
  op: "Identity"
  input: "Conv2D_2/b"
  attr {
    key: "T"
    value {
      type: DT_FLOAT
    }
  }
  attr {
    key: "_class"
    value {
      list {
        s: "loc:@Conv2D_2/b"
      }
    }
  }
}
node {
  name: "Conv2D_2/Conv2D"
  op: "Conv2D"
  input: "MaxPool2D_1/MaxPool"
  input: "Conv2D_2/W/read"
  attr {
    key: "T"
    value {
      type: DT_FLOAT
    }
  }
  attr {
    key: "data_format"
    value {
      s: "NHWC"
    }
  }
  attr {
    key: "padding"
    value {
      s: "SAME"
    }
  }
  attr {
    key: "strides"
    value {
      list {
        i: 1
        i: 1
        i: 1
        i: 1
      }
    }
  }
  attr {
    key: "use_cudnn_on_gpu"
    value {
      b: true
    }
  }
}
node {
  name: "Conv2D_2/BiasAdd"
  op: "BiasAdd"
  input: "Conv2D_2/Conv2D"
  input: "Conv2D_2/b/read"
  attr {
    key: "T"
    value {
      type: DT_FLOAT
    }
  }
  attr {
    key: "data_format"
    value {
      s: "NHWC"
    }
  }
}
node {
  name: "Conv2D_2/Relu"
  op: "Relu"
  input: "Conv2D_2/BiasAdd"
  attr {
    key: "T"
    value {
      type: DT_FLOAT
    }
  }
}
node {
  name: "MaxPool2D_2/MaxPool"
  op: "MaxPool"
  input: "Conv2D_2/Relu"
  attr {
    key: "T"
    value {
      type: DT_FLOAT
    }
  }
  attr {
    key: "data_format"
    value {
      s: "NHWC"
    }
  }
  attr {
    key: "ksize"
    value {
      list {
        i: 1
        i: 2
        i: 2
        i: 1
      }
    }
  }
  attr {
    key: "padding"
    value {
      s: "SAME"
    }
  }
  attr {
    key: "strides"
    value {
      list {
        i: 1
        i: 2
        i: 2
        i: 1
      }
    }
  }
}
node {
  name: "Conv2D_3/W/Initializer/random_uniform/shape"
  op: "Const"
  attr {
    key: "_class"
    value {
      list {
        s: "loc:@Conv2D_3/W"
      }
    }
  }
  attr {
    key: "dtype"
    value {
      type: DT_INT32
    }
  }
  attr {
    key: "value"
    value {
      tensor {
        dtype: DT_INT32
        tensor_shape {
          dim {
            size: 4
          }
        }
        tensor_content: "\002\000\000\000\002\000\000\000 \000\000\000@\000\000\000"
      }
    }
  }
}
node {
  name: "Conv2D_3/W/Initializer/random_uniform/min"
  op: "Const"
  attr {
    key: "_class"
    value {
      list {
        s: "loc:@Conv2D_3/W"
      }
    }
  }
  attr {
    key: "dtype"
    value {
      type: DT_FLOAT
    }
  }
  attr {
    key: "value"
    value {
      tensor {
        dtype: DT_FLOAT
        tensor_shape {
        }
        float_val: -0.1530931144952774
      }
    }
  }
}
node {
  name: "Conv2D_3/W/Initializer/random_uniform/max"
  op: "Const"
  attr {
    key: "_class"
    value {
      list {
        s: "loc:@Conv2D_3/W"
      }
    }
  }
  attr {
    key: "dtype"
    value {
      type: DT_FLOAT
    }
  }
  attr {
    key: "value"
    value {
      tensor {
        dtype: DT_FLOAT
        tensor_shape {
        }
        float_val: 0.1530931144952774
      }
    }
  }
}
node {
  name: "Conv2D_3/W/Initializer/random_uniform/RandomUniform"
  op: "RandomUniform"
  input: "Conv2D_3/W/Initializer/random_uniform/shape"
  attr {
    key: "T"
    value {
      type: DT_INT32
    }
  }
  attr {
    key: "_class"
    value {
      list {
        s: "loc:@Conv2D_3/W"
      }
    }
  }
  attr {
    key: "dtype"
    value {
      type: DT_FLOAT
    }
  }
  attr {
    key: "seed"
    value {
      i: 0
    }
  }
  attr {
    key: "seed2"
    value {
      i: 0
    }
  }
}
node {
  name: "Conv2D_3/W/Initializer/random_uniform/sub"
  op: "Sub"
  input: "Conv2D_3/W/Initializer/random_uniform/max"
  input: "Conv2D_3/W/Initializer/random_uniform/min"
  attr {
    key: "T"
    value {
      type: DT_FLOAT
    }
  }
  attr {
    key: "_class"
    value {
      list {
        s: "loc:@Conv2D_3/W"
      }
    }
  }
}
node {
  name: "Conv2D_3/W/Initializer/random_uniform/mul"
  op: "Mul"
  input: "Conv2D_3/W/Initializer/random_uniform/RandomUniform"
  input: "Conv2D_3/W/Initializer/random_uniform/sub"
  attr {
    key: "T"
    value {
      type: DT_FLOAT
    }
  }
  attr {
    key: "_class"
    value {
      list {
        s: "loc:@Conv2D_3/W"
      }
    }
  }
}
node {
  name: "Conv2D_3/W/Initializer/random_uniform"
  op: "Add"
  input: "Conv2D_3/W/Initializer/random_uniform/mul"
  input: "Conv2D_3/W/Initializer/random_uniform/min"
  attr {
    key: "T"
    value {
      type: DT_FLOAT
    }
  }
  attr {
    key: "_class"
    value {
      list {
        s: "loc:@Conv2D_3/W"
      }
    }
  }
}
node {
  name: "Conv2D_3/W"
  op: "VariableV2"
  attr {
    key: "_class"
    value {
      list {
        s: "loc:@Conv2D_3/W"
      }
    }
  }
  attr {
    key: "container"
    value {
      s: ""
    }
  }
  attr {
    key: "dtype"
    value {
      type: DT_FLOAT
    }
  }
  attr {
    key: "shape"
    value {
      shape {
        dim {
          size: 2
        }
        dim {
          size: 2
        }
        dim {
          size: 32
        }
        dim {
          size: 64
        }
      }
    }
  }
  attr {
    key: "shared_name"
    value {
      s: ""
    }
  }
}
node {
  name: "Conv2D_3/W/Assign"
  op: "Assign"
  input: "Conv2D_3/W"
  input: "Conv2D_3/W/Initializer/random_uniform"
  attr {
    key: "T"
    value {
      type: DT_FLOAT
    }
  }
  attr {
    key: "_class"
    value {
      list {
        s: "loc:@Conv2D_3/W"
      }
    }
  }
  attr {
    key: "use_locking"
    value {
      b: true
    }
  }
  attr {
    key: "validate_shape"
    value {
      b: true
    }
  }
}
node {
  name: "Conv2D_3/W/read"
  op: "Identity"
  input: "Conv2D_3/W"
  attr {
    key: "T"
    value {
      type: DT_FLOAT
    }
  }
  attr {
    key: "_class"
    value {
      list {
        s: "loc:@Conv2D_3/W"
      }
    }
  }
}
node {
  name: "Conv2D_3/b/Initializer/Const"
  op: "Const"
  attr {
    key: "_class"
    value {
      list {
        s: "loc:@Conv2D_3/b"
      }
    }
  }
  attr {
    key: "dtype"
    value {
      type: DT_FLOAT
    }
  }
  attr {
    key: "value"
    value {
      tensor {
        dtype: DT_FLOAT
        tensor_shape {
          dim {
            size: 64
          }
        }
        float_val: 0.0
      }
    }
  }
}
node {
  name: "Conv2D_3/b"
  op: "VariableV2"
  attr {
    key: "_class"
    value {
      list {
        s: "loc:@Conv2D_3/b"
      }
    }
  }
  attr {
    key: "container"
    value {
      s: ""
    }
  }
  attr {
    key: "dtype"
    value {
      type: DT_FLOAT
    }
  }
  attr {
    key: "shape"
    value {
      shape {
        dim {
          size: 64
        }
      }
    }
  }
  attr {
    key: "shared_name"
    value {
      s: ""
    }
  }
}
node {
  name: "Conv2D_3/b/Assign"
  op: "Assign"
  input: "Conv2D_3/b"
  input: "Conv2D_3/b/Initializer/Const"
  attr {
    key: "T"
    value {
      type: DT_FLOAT
    }
  }
  attr {
    key: "_class"
    value {
      list {
        s: "loc:@Conv2D_3/b"
      }
    }
  }
  attr {
    key: "use_locking"
    value {
      b: true
    }
  }
  attr {
    key: "validate_shape"
    value {
      b: true
    }
  }
}
node {
  name: "Conv2D_3/b/read"
  op: "Identity"
  input: "Conv2D_3/b"
  attr {
    key: "T"
    value {
      type: DT_FLOAT
    }
  }
  attr {
    key: "_class"
    value {
      list {
        s: "loc:@Conv2D_3/b"
      }
    }
  }
}
node {
  name: "Conv2D_3/Conv2D"
  op: "Conv2D"
  input: "MaxPool2D_2/MaxPool"
  input: "Conv2D_3/W/read"
  attr {
    key: "T"
    value {
      type: DT_FLOAT
    }
  }
  attr {
    key: "data_format"
    value {
      s: "NHWC"
    }
  }
  attr {
    key: "padding"
    value {
      s: "SAME"
    }
  }
  attr {
    key: "strides"
    value {
      list {
        i: 1
        i: 1
        i: 1
        i: 1
      }
    }
  }
  attr {
    key: "use_cudnn_on_gpu"
    value {
      b: true
    }
  }
}
node {
  name: "Conv2D_3/BiasAdd"
  op: "BiasAdd"
  input: "Conv2D_3/Conv2D"
  input: "Conv2D_3/b/read"
  attr {
    key: "T"
    value {
      type: DT_FLOAT
    }
  }
  attr {
    key: "data_format"
    value {
      s: "NHWC"
    }
  }
}
node {
  name: "Conv2D_3/Relu"
  op: "Relu"
  input: "Conv2D_3/BiasAdd"
  attr {
    key: "T"
    value {
      type: DT_FLOAT
    }
  }
}
node {
  name: "MaxPool2D_3/MaxPool"
  op: "MaxPool"
  input: "Conv2D_3/Relu"
  attr {
    key: "T"
    value {
      type: DT_FLOAT
    }
  }
  attr {
    key: "data_format"
    value {
      s: "NHWC"
    }
  }
  attr {
    key: "ksize"
    value {
      list {
        i: 1
        i: 2
        i: 2
        i: 1
      }
    }
  }
  attr {
    key: "padding"
    value {
      s: "SAME"
    }
  }
  attr {
    key: "strides"
    value {
      list {
        i: 1
        i: 2
        i: 2
        i: 1
      }
    }
  }
}
node {
  name: "Conv2D_4/W/Initializer/random_uniform/shape"
  op: "Const"
  attr {
    key: "_class"
    value {
      list {
        s: "loc:@Conv2D_4/W"
      }
    }
  }
  attr {
    key: "dtype"
    value {
      type: DT_INT32
    }
  }
  attr {
    key: "value"
    value {
      tensor {
        dtype: DT_INT32
        tensor_shape {
          dim {
            size: 4
          }
        }
        tensor_content: "\002\000\000\000\002\000\000\000@\000\000\000 \000\000\000"
      }
    }
  }
}
node {
  name: "Conv2D_4/W/Initializer/random_uniform/min"
  op: "Const"
  attr {
    key: "_class"
    value {
      list {
        s: "loc:@Conv2D_4/W"
      }
    }
  }
  attr {
    key: "dtype"
    value {
      type: DT_FLOAT
    }
  }
  attr {
    key: "value"
    value {
      tensor {
        dtype: DT_FLOAT
        tensor_shape {
        }
        float_val: -0.10825317353010178
      }
    }
  }
}
node {
  name: "Conv2D_4/W/Initializer/random_uniform/max"
  op: "Const"
  attr {
    key: "_class"
    value {
      list {
        s: "loc:@Conv2D_4/W"
      }
    }
  }
  attr {
    key: "dtype"
    value {
      type: DT_FLOAT
    }
  }
  attr {
    key: "value"
    value {
      tensor {
        dtype: DT_FLOAT
        tensor_shape {
        }
        float_val: 0.10825317353010178
      }
    }
  }
}
node {
  name: "Conv2D_4/W/Initializer/random_uniform/RandomUniform"
  op: "RandomUniform"
  input: "Conv2D_4/W/Initializer/random_uniform/shape"
  attr {
    key: "T"
    value {
      type: DT_INT32
    }
  }
  attr {
    key: "_class"
    value {
      list {
        s: "loc:@Conv2D_4/W"
      }
    }
  }
  attr {
    key: "dtype"
    value {
      type: DT_FLOAT
    }
  }
  attr {
    key: "seed"
    value {
      i: 0
    }
  }
  attr {
    key: "seed2"
    value {
      i: 0
    }
  }
}
node {
  name: "Conv2D_4/W/Initializer/random_uniform/sub"
  op: "Sub"
  input: "Conv2D_4/W/Initializer/random_uniform/max"
  input: "Conv2D_4/W/Initializer/random_uniform/min"
  attr {
    key: "T"
    value {
      type: DT_FLOAT
    }
  }
  attr {
    key: "_class"
    value {
      list {
        s: "loc:@Conv2D_4/W"
      }
    }
  }
}
node {
  name: "Conv2D_4/W/Initializer/random_uniform/mul"
  op: "Mul"
  input: "Conv2D_4/W/Initializer/random_uniform/RandomUniform"
  input: "Conv2D_4/W/Initializer/random_uniform/sub"
  attr {
    key: "T"
    value {
      type: DT_FLOAT
    }
  }
  attr {
    key: "_class"
    value {
      list {
        s: "loc:@Conv2D_4/W"
      }
    }
  }
}
node {
  name: "Conv2D_4/W/Initializer/random_uniform"
  op: "Add"
  input: "Conv2D_4/W/Initializer/random_uniform/mul"
  input: "Conv2D_4/W/Initializer/random_uniform/min"
  attr {
    key: "T"
    value {
      type: DT_FLOAT
    }
  }
  attr {
    key: "_class"
    value {
      list {
        s: "loc:@Conv2D_4/W"
      }
    }
  }
}
node {
  name: "Conv2D_4/W"
  op: "VariableV2"
  attr {
    key: "_class"
    value {
      list {
        s: "loc:@Conv2D_4/W"
      }
    }
  }
  attr {
    key: "container"
    value {
      s: ""
    }
  }
  attr {
    key: "dtype"
    value {
      type: DT_FLOAT
    }
  }
  attr {
    key: "shape"
    value {
      shape {
        dim {
          size: 2
        }
        dim {
          size: 2
        }
        dim {
          size: 64
        }
        dim {
          size: 32
        }
      }
    }
  }
  attr {
    key: "shared_name"
    value {
      s: ""
    }
  }
}
node {
  name: "Conv2D_4/W/Assign"
  op: "Assign"
  input: "Conv2D_4/W"
  input: "Conv2D_4/W/Initializer/random_uniform"
  attr {
    key: "T"
    value {
      type: DT_FLOAT
    }
  }
  attr {
    key: "_class"
    value {
      list {
        s: "loc:@Conv2D_4/W"
      }
    }
  }
  attr {
    key: "use_locking"
    value {
      b: true
    }
  }
  attr {
    key: "validate_shape"
    value {
      b: true
    }
  }
}
node {
  name: "Conv2D_4/W/read"
  op: "Identity"
  input: "Conv2D_4/W"
  attr {
    key: "T"
    value {
      type: DT_FLOAT
    }
  }
  attr {
    key: "_class"
    value {
      list {
        s: "loc:@Conv2D_4/W"
      }
    }
  }
}
node {
  name: "Conv2D_4/b/Initializer/Const"
  op: "Const"
  attr {
    key: "_class"
    value {
      list {
        s: "loc:@Conv2D_4/b"
      }
    }
  }
  attr {
    key: "dtype"
    value {
      type: DT_FLOAT
    }
  }
  attr {
    key: "value"
    value {
      tensor {
        dtype: DT_FLOAT
        tensor_shape {
          dim {
            size: 32
          }
        }
        float_val: 0.0
      }
    }
  }
}
node {
  name: "Conv2D_4/b"
  op: "VariableV2"
  attr {
    key: "_class"
    value {
      list {
        s: "loc:@Conv2D_4/b"
      }
    }
  }
  attr {
    key: "container"
    value {
      s: ""
    }
  }
  attr {
    key: "dtype"
    value {
      type: DT_FLOAT
    }
  }
  attr {
    key: "shape"
    value {
      shape {
        dim {
          size: 32
        }
      }
    }
  }
  attr {
    key: "shared_name"
    value {
      s: ""
    }
  }
}
node {
  name: "Conv2D_4/b/Assign"
  op: "Assign"
  input: "Conv2D_4/b"
  input: "Conv2D_4/b/Initializer/Const"
  attr {
    key: "T"
    value {
      type: DT_FLOAT
    }
  }
  attr {
    key: "_class"
    value {
      list {
        s: "loc:@Conv2D_4/b"
      }
    }
  }
  attr {
    key: "use_locking"
    value {
      b: true
    }
  }
  attr {
    key: "validate_shape"
    value {
      b: true
    }
  }
}
node {
  name: "Conv2D_4/b/read"
  op: "Identity"
  input: "Conv2D_4/b"
  attr {
    key: "T"
    value {
      type: DT_FLOAT
    }
  }
  attr {
    key: "_class"
    value {
      list {
        s: "loc:@Conv2D_4/b"
      }
    }
  }
}
node {
  name: "Conv2D_4/Conv2D"
  op: "Conv2D"
  input: "MaxPool2D_3/MaxPool"
  input: "Conv2D_4/W/read"
  attr {
    key: "T"
    value {
      type: DT_FLOAT
    }
  }
  attr {
    key: "data_format"
    value {
      s: "NHWC"
    }
  }
  attr {
    key: "padding"
    value {
      s: "SAME"
    }
  }
  attr {
    key: "strides"
    value {
      list {
        i: 1
        i: 1
        i: 1
        i: 1
      }
    }
  }
  attr {
    key: "use_cudnn_on_gpu"
    value {
      b: true
    }
  }
}
node {
  name: "Conv2D_4/BiasAdd"
  op: "BiasAdd"
  input: "Conv2D_4/Conv2D"
  input: "Conv2D_4/b/read"
  attr {
    key: "T"
    value {
      type: DT_FLOAT
    }
  }
  attr {
    key: "data_format"
    value {
      s: "NHWC"
    }
  }
}
node {
  name: "Conv2D_4/Relu"
  op: "Relu"
  input: "Conv2D_4/BiasAdd"
  attr {
    key: "T"
    value {
      type: DT_FLOAT
    }
  }
}
node {
  name: "MaxPool2D_4/MaxPool"
  op: "MaxPool"
  input: "Conv2D_4/Relu"
  attr {
    key: "T"
    value {
      type: DT_FLOAT
    }
  }
  attr {
    key: "data_format"
    value {
      s: "NHWC"
    }
  }
  attr {
    key: "ksize"
    value {
      list {
        i: 1
        i: 2
        i: 2
        i: 1
      }
    }
  }
  attr {
    key: "padding"
    value {
      s: "SAME"
    }
  }
  attr {
    key: "strides"
    value {
      list {
        i: 1
        i: 2
        i: 2
        i: 1
      }
    }
  }
}
node {
  name: "Conv2D_5/W/Initializer/random_uniform/shape"
  op: "Const"
  attr {
    key: "_class"
    value {
      list {
        s: "loc:@Conv2D_5/W"
      }
    }
  }
  attr {
    key: "dtype"
    value {
      type: DT_INT32
    }
  }
  attr {
    key: "value"
    value {
      tensor {
        dtype: DT_INT32
        tensor_shape {
          dim {
            size: 4
          }
        }
        tensor_content: "\002\000\000\000\002\000\000\000 \000\000\000@\000\000\000"
      }
    }
  }
}
node {
  name: "Conv2D_5/W/Initializer/random_uniform/min"
  op: "Const"
  attr {
    key: "_class"
    value {
      list {
        s: "loc:@Conv2D_5/W"
      }
    }
  }
  attr {
    key: "dtype"
    value {
      type: DT_FLOAT
    }
  }
  attr {
    key: "value"
    value {
      tensor {
        dtype: DT_FLOAT
        tensor_shape {
        }
        float_val: -0.1530931144952774
      }
    }
  }
}
node {
  name: "Conv2D_5/W/Initializer/random_uniform/max"
  op: "Const"
  attr {
    key: "_class"
    value {
      list {
        s: "loc:@Conv2D_5/W"
      }
    }
  }
  attr {
    key: "dtype"
    value {
      type: DT_FLOAT
    }
  }
  attr {
    key: "value"
    value {
      tensor {
        dtype: DT_FLOAT
        tensor_shape {
        }
        float_val: 0.1530931144952774
      }
    }
  }
}
node {
  name: "Conv2D_5/W/Initializer/random_uniform/RandomUniform"
  op: "RandomUniform"
  input: "Conv2D_5/W/Initializer/random_uniform/shape"
  attr {
    key: "T"
    value {
      type: DT_INT32
    }
  }
  attr {
    key: "_class"
    value {
      list {
        s: "loc:@Conv2D_5/W"
      }
    }
  }
  attr {
    key: "dtype"
    value {
      type: DT_FLOAT
    }
  }
  attr {
    key: "seed"
    value {
      i: 0
    }
  }
  attr {
    key: "seed2"
    value {
      i: 0
    }
  }
}
node {
  name: "Conv2D_5/W/Initializer/random_uniform/sub"
  op: "Sub"
  input: "Conv2D_5/W/Initializer/random_uniform/max"
  input: "Conv2D_5/W/Initializer/random_uniform/min"
  attr {
    key: "T"
    value {
      type: DT_FLOAT
    }
  }
  attr {
    key: "_class"
    value {
      list {
        s: "loc:@Conv2D_5/W"
      }
    }
  }
}
node {
  name: "Conv2D_5/W/Initializer/random_uniform/mul"
  op: "Mul"
  input: "Conv2D_5/W/Initializer/random_uniform/RandomUniform"
  input: "Conv2D_5/W/Initializer/random_uniform/sub"
  attr {
    key: "T"
    value {
      type: DT_FLOAT
    }
  }
  attr {
    key: "_class"
    value {
      list {
        s: "loc:@Conv2D_5/W"
      }
    }
  }
}
node {
  name: "Conv2D_5/W/Initializer/random_uniform"
  op: "Add"
  input: "Conv2D_5/W/Initializer/random_uniform/mul"
  input: "Conv2D_5/W/Initializer/random_uniform/min"
  attr {
    key: "T"
    value {
      type: DT_FLOAT
    }
  }
  attr {
    key: "_class"
    value {
      list {
        s: "loc:@Conv2D_5/W"
      }
    }
  }
}
node {
  name: "Conv2D_5/W"
  op: "VariableV2"
  attr {
    key: "_class"
    value {
      list {
        s: "loc:@Conv2D_5/W"
      }
    }
  }
  attr {
    key: "container"
    value {
      s: ""
    }
  }
  attr {
    key: "dtype"
    value {
      type: DT_FLOAT
    }
  }
  attr {
    key: "shape"
    value {
      shape {
        dim {
          size: 2
        }
        dim {
          size: 2
        }
        dim {
          size: 32
        }
        dim {
          size: 64
        }
      }
    }
  }
  attr {
    key: "shared_name"
    value {
      s: ""
    }
  }
}
node {
  name: "Conv2D_5/W/Assign"
  op: "Assign"
  input: "Conv2D_5/W"
  input: "Conv2D_5/W/Initializer/random_uniform"
  attr {
    key: "T"
    value {
      type: DT_FLOAT
    }
  }
  attr {
    key: "_class"
    value {
      list {
        s: "loc:@Conv2D_5/W"
      }
    }
  }
  attr {
    key: "use_locking"
    value {
      b: true
    }
  }
  attr {
    key: "validate_shape"
    value {
      b: true
    }
  }
}
node {
  name: "Conv2D_5/W/read"
  op: "Identity"
  input: "Conv2D_5/W"
  attr {
    key: "T"
    value {
      type: DT_FLOAT
    }
  }
  attr {
    key: "_class"
    value {
      list {
        s: "loc:@Conv2D_5/W"
      }
    }
  }
}
node {
  name: "Conv2D_5/b/Initializer/Const"
  op: "Const"
  attr {
    key: "_class"
    value {
      list {
        s: "loc:@Conv2D_5/b"
      }
    }
  }
  attr {
    key: "dtype"
    value {
      type: DT_FLOAT
    }
  }
  attr {
    key: "value"
    value {
      tensor {
        dtype: DT_FLOAT
        tensor_shape {
          dim {
            size: 64
          }
        }
        float_val: 0.0
      }
    }
  }
}
node {
  name: "Conv2D_5/b"
  op: "VariableV2"
  attr {
    key: "_class"
    value {
      list {
        s: "loc:@Conv2D_5/b"
      }
    }
  }
  attr {
    key: "container"
    value {
      s: ""
    }
  }
  attr {
    key: "dtype"
    value {
      type: DT_FLOAT
    }
  }
  attr {
    key: "shape"
    value {
      shape {
        dim {
          size: 64
        }
      }
    }
  }
  attr {
    key: "shared_name"
    value {
      s: ""
    }
  }
}
node {
  name: "Conv2D_5/b/Assign"
  op: "Assign"
  input: "Conv2D_5/b"
  input: "Conv2D_5/b/Initializer/Const"
  attr {
    key: "T"
    value {
      type: DT_FLOAT
    }
  }
  attr {
    key: "_class"
    value {
      list {
        s: "loc:@Conv2D_5/b"
      }
    }
  }
  attr {
    key: "use_locking"
    value {
      b: true
    }
  }
  attr {
    key: "validate_shape"
    value {
      b: true
    }
  }
}
node {
  name: "Conv2D_5/b/read"
  op: "Identity"
  input: "Conv2D_5/b"
  attr {
    key: "T"
    value {
      type: DT_FLOAT
    }
  }
  attr {
    key: "_class"
    value {
      list {
        s: "loc:@Conv2D_5/b"
      }
    }
  }
}
node {
  name: "Conv2D_5/Conv2D"
  op: "Conv2D"
  input: "MaxPool2D_4/MaxPool"
  input: "Conv2D_5/W/read"
  attr {
    key: "T"
    value {
      type: DT_FLOAT
    }
  }
  attr {
    key: "data_format"
    value {
      s: "NHWC"
    }
  }
  attr {
    key: "padding"
    value {
      s: "SAME"
    }
  }
  attr {
    key: "strides"
    value {
      list {
        i: 1
        i: 1
        i: 1
        i: 1
      }
    }
  }
  attr {
    key: "use_cudnn_on_gpu"
    value {
      b: true
    }
  }
}
node {
  name: "Conv2D_5/BiasAdd"
  op: "BiasAdd"
  input: "Conv2D_5/Conv2D"
  input: "Conv2D_5/b/read"
  attr {
    key: "T"
    value {
      type: DT_FLOAT
    }
  }
  attr {
    key: "data_format"
    value {
      s: "NHWC"
    }
  }
}
node {
  name: "Conv2D_5/Relu"
  op: "Relu"
  input: "Conv2D_5/BiasAdd"
  attr {
    key: "T"
    value {
      type: DT_FLOAT
    }
  }
}
node {
  name: "MaxPool2D_5/MaxPool"
  op: "MaxPool"
  input: "Conv2D_5/Relu"
  attr {
    key: "T"
    value {
      type: DT_FLOAT
    }
  }
  attr {
    key: "data_format"
    value {
      s: "NHWC"
    }
  }
  attr {
    key: "ksize"
    value {
      list {
        i: 1
        i: 2
        i: 2
        i: 1
      }
    }
  }
  attr {
    key: "padding"
    value {
      s: "SAME"
    }
  }
  attr {
    key: "strides"
    value {
      list {
        i: 1
        i: 2
        i: 2
        i: 1
      }
    }
  }
}
node {
  name: "FullyConnected/W/Initializer/truncated_normal/shape"
  op: "Const"
  attr {
    key: "_class"
    value {
      list {
        s: "loc:@FullyConnected/W"
      }
    }
  }
  attr {
    key: "dtype"
    value {
      type: DT_INT32
    }
  }
  attr {
    key: "value"
    value {
      tensor {
        dtype: DT_INT32
        tensor_shape {
          dim {
            size: 2
          }
        }
        tensor_content: "@\000\000\000\000\004\000\000"
      }
    }
  }
}
node {
  name: "FullyConnected/W/Initializer/truncated_normal/mean"
  op: "Const"
  attr {
    key: "_class"
    value {
      list {
        s: "loc:@FullyConnected/W"
      }
    }
  }
  attr {
    key: "dtype"
    value {
      type: DT_FLOAT
    }
  }
  attr {
    key: "value"
    value {
      tensor {
        dtype: DT_FLOAT
        tensor_shape {
        }
        float_val: 0.0
      }
    }
  }
}
node {
  name: "FullyConnected/W/Initializer/truncated_normal/stddev"
  op: "Const"
  attr {
    key: "_class"
    value {
      list {
        s: "loc:@FullyConnected/W"
      }
    }
  }
  attr {
    key: "dtype"
    value {
      type: DT_FLOAT
    }
  }
  attr {
    key: "value"
    value {
      tensor {
        dtype: DT_FLOAT
        tensor_shape {
        }
        float_val: 0.019999999552965164
      }
    }
  }
}
node {
  name: "FullyConnected/W/Initializer/truncated_normal/TruncatedNormal"
  op: "TruncatedNormal"
  input: "FullyConnected/W/Initializer/truncated_normal/shape"
  attr {
    key: "T"
    value {
      type: DT_INT32
    }
  }
  attr {
    key: "_class"
    value {
      list {
        s: "loc:@FullyConnected/W"
      }
    }
  }
  attr {
    key: "dtype"
    value {
      type: DT_FLOAT
    }
  }
  attr {
    key: "seed"
    value {
      i: 0
    }
  }
  attr {
    key: "seed2"
    value {
      i: 0
    }
  }
}
node {
  name: "FullyConnected/W/Initializer/truncated_normal/mul"
  op: "Mul"
  input: "FullyConnected/W/Initializer/truncated_normal/TruncatedNormal"
  input: "FullyConnected/W/Initializer/truncated_normal/stddev"
  attr {
    key: "T"
    value {
      type: DT_FLOAT
    }
  }
  attr {
    key: "_class"
    value {
      list {
        s: "loc:@FullyConnected/W"
      }
    }
  }
}
node {
  name: "FullyConnected/W/Initializer/truncated_normal"
  op: "Add"
  input: "FullyConnected/W/Initializer/truncated_normal/mul"
  input: "FullyConnected/W/Initializer/truncated_normal/mean"
  attr {
    key: "T"
    value {
      type: DT_FLOAT
    }
  }
  attr {
    key: "_class"
    value {
      list {
        s: "loc:@FullyConnected/W"
      }
    }
  }
}
node {
  name: "FullyConnected/W"
  op: "VariableV2"
  attr {
    key: "_class"
    value {
      list {
        s: "loc:@FullyConnected/W"
      }
    }
  }
  attr {
    key: "container"
    value {
      s: ""
    }
  }
  attr {
    key: "dtype"
    value {
      type: DT_FLOAT
    }
  }
  attr {
    key: "shape"
    value {
      shape {
        dim {
          size: 64
        }
        dim {
          size: 1024
        }
      }
    }
  }
  attr {
    key: "shared_name"
    value {
      s: ""
    }
  }
}
node {
  name: "FullyConnected/W/Assign"
  op: "Assign"
  input: "FullyConnected/W"
  input: "FullyConnected/W/Initializer/truncated_normal"
  attr {
    key: "T"
    value {
      type: DT_FLOAT
    }
  }
  attr {
    key: "_class"
    value {
      list {
        s: "loc:@FullyConnected/W"
      }
    }
  }
  attr {
    key: "use_locking"
    value {
      b: true
    }
  }
  attr {
    key: "validate_shape"
    value {
      b: true
    }
  }
}
node {
  name: "FullyConnected/W/read"
  op: "Identity"
  input: "FullyConnected/W"
  attr {
    key: "T"
    value {
      type: DT_FLOAT
    }
  }
  attr {
    key: "_class"
    value {
      list {
        s: "loc:@FullyConnected/W"
      }
    }
  }
}
node {
  name: "FullyConnected/b/Initializer/Const"
  op: "Const"
  attr {
    key: "_class"
    value {
      list {
        s: "loc:@FullyConnected/b"
      }
    }
  }
  attr {
    key: "dtype"
    value {
      type: DT_FLOAT
    }
  }
  attr {
    key: "value"
    value {
      tensor {
        dtype: DT_FLOAT
        tensor_shape {
          dim {
            size: 1024
          }
        }
        float_val: 0.0
      }
    }
  }
}
node {
  name: "FullyConnected/b"
  op: "VariableV2"
  attr {
    key: "_class"
    value {
      list {
        s: "loc:@FullyConnected/b"
      }
    }
  }
  attr {
    key: "container"
    value {
      s: ""
    }
  }
  attr {
    key: "dtype"
    value {
      type: DT_FLOAT
    }
  }
  attr {
    key: "shape"
    value {
      shape {
        dim {
          size: 1024
        }
      }
    }
  }
  attr {
    key: "shared_name"
    value {
      s: ""
    }
  }
}
node {
  name: "FullyConnected/b/Assign"
  op: "Assign"
  input: "FullyConnected/b"
  input: "FullyConnected/b/Initializer/Const"
  attr {
    key: "T"
    value {
      type: DT_FLOAT
    }
  }
  attr {
    key: "_class"
    value {
      list {
        s: "loc:@FullyConnected/b"
      }
    }
  }
  attr {
    key: "use_locking"
    value {
      b: true
    }
  }
  attr {
    key: "validate_shape"
    value {
      b: true
    }
  }
}
node {
  name: "FullyConnected/b/read"
  op: "Identity"
  input: "FullyConnected/b"
  attr {
    key: "T"
    value {
      type: DT_FLOAT
    }
  }
  attr {
    key: "_class"
    value {
      list {
        s: "loc:@FullyConnected/b"
      }
    }
  }
}
node {
  name: "FullyConnected/Reshape/shape"
  op: "Const"
  attr {
    key: "dtype"
    value {
      type: DT_INT32
    }
  }
  attr {
    key: "value"
    value {
      tensor {
        dtype: DT_INT32
        tensor_shape {
          dim {
            size: 2
          }
        }
        tensor_content: "\377\377\377\377@\000\000\000"
      }
    }
  }
}
node {
  name: "FullyConnected/Reshape"
  op: "Reshape"
  input: "MaxPool2D_5/MaxPool"
  input: "FullyConnected/Reshape/shape"
  attr {
    key: "T"
    value {
      type: DT_FLOAT
    }
  }
  attr {
    key: "Tshape"
    value {
      type: DT_INT32
    }
  }
}
node {
  name: "FullyConnected/MatMul"
  op: "MatMul"
  input: "FullyConnected/Reshape"
  input: "FullyConnected/W/read"
  attr {
    key: "T"
    value {
      type: DT_FLOAT
    }
  }
  attr {
    key: "transpose_a"
    value {
      b: false
    }
  }
  attr {
    key: "transpose_b"
    value {
      b: false
    }
  }
}
node {
  name: "FullyConnected/BiasAdd"
  op: "BiasAdd"
  input: "FullyConnected/MatMul"
  input: "FullyConnected/b/read"
  attr {
    key: "T"
    value {
      type: DT_FLOAT
    }
  }
  attr {
    key: "data_format"
    value {
      s: "NHWC"
    }
  }
}
node {
  name: "FullyConnected/Relu"
  op: "Relu"
  input: "FullyConnected/BiasAdd"
  attr {
    key: "T"
    value {
      type: DT_FLOAT
    }
  }
}
node {
  name: "output/W/Initializer/truncated_normal/shape"
  op: "Const"
  attr {
    key: "_class"
    value {
      list {
        s: "loc:@output/W"
      }
    }
  }
  attr {
    key: "dtype"
    value {
      type: DT_INT32
    }
  }
  attr {
    key: "value"
    value {
      tensor {
        dtype: DT_INT32
        tensor_shape {
          dim {
            size: 2
          }
        }
        tensor_content: "\000\004\000\000\002\000\000\000"
      }
    }
  }
}
node {
  name: "output/W/Initializer/truncated_normal/mean"
  op: "Const"
  attr {
    key: "_class"
    value {
      list {
        s: "loc:@output/W"
      }
    }
  }
  attr {
    key: "dtype"
    value {
      type: DT_FLOAT
    }
  }
  attr {
    key: "value"
    value {
      tensor {
        dtype: DT_FLOAT
        tensor_shape {
        }
        float_val: 0.0
      }
    }
  }
}
node {
  name: "output/W/Initializer/truncated_normal/stddev"
  op: "Const"
  attr {
    key: "_class"
    value {
      list {
        s: "loc:@output/W"
      }
    }
  }
  attr {
    key: "dtype"
    value {
      type: DT_FLOAT
    }
  }
  attr {
    key: "value"
    value {
      tensor {
        dtype: DT_FLOAT
        tensor_shape {
        }
        float_val: 0.019999999552965164
      }
    }
  }
}
node {
  name: "output/W/Initializer/truncated_normal/TruncatedNormal"
  op: "TruncatedNormal"
  input: "output/W/Initializer/truncated_normal/shape"
  attr {
    key: "T"
    value {
      type: DT_INT32
    }
  }
  attr {
    key: "_class"
    value {
      list {
        s: "loc:@output/W"
      }
    }
  }
  attr {
    key: "dtype"
    value {
      type: DT_FLOAT
    }
  }
  attr {
    key: "seed"
    value {
      i: 0
    }
  }
  attr {
    key: "seed2"
    value {
      i: 0
    }
  }
}
node {
  name: "output/W/Initializer/truncated_normal/mul"
  op: "Mul"
  input: "output/W/Initializer/truncated_normal/TruncatedNormal"
  input: "output/W/Initializer/truncated_normal/stddev"
  attr {
    key: "T"
    value {
      type: DT_FLOAT
    }
  }
  attr {
    key: "_class"
    value {
      list {
        s: "loc:@output/W"
      }
    }
  }
}
node {
  name: "output/W/Initializer/truncated_normal"
  op: "Add"
  input: "output/W/Initializer/truncated_normal/mul"
  input: "output/W/Initializer/truncated_normal/mean"
  attr {
    key: "T"
    value {
      type: DT_FLOAT
    }
  }
  attr {
    key: "_class"
    value {
      list {
        s: "loc:@output/W"
      }
    }
  }
}
node {
  name: "output/W"
  op: "VariableV2"
  attr {
    key: "_class"
    value {
      list {
        s: "loc:@output/W"
      }
    }
  }
  attr {
    key: "container"
    value {
      s: ""
    }
  }
  attr {
    key: "dtype"
    value {
      type: DT_FLOAT
    }
  }
  attr {
    key: "shape"
    value {
      shape {
        dim {
          size: 1024
        }
        dim {
          size: 2
        }
      }
    }
  }
  attr {
    key: "shared_name"
    value {
      s: ""
    }
  }
}
node {
  name: "output/W/Assign"
  op: "Assign"
  input: "output/W"
  input: "output/W/Initializer/truncated_normal"
  attr {
    key: "T"
    value {
      type: DT_FLOAT
    }
  }
  attr {
    key: "_class"
    value {
      list {
        s: "loc:@output/W"
      }
    }
  }
  attr {
    key: "use_locking"
    value {
      b: true
    }
  }
  attr {
    key: "validate_shape"
    value {
      b: true
    }
  }
}
node {
  name: "output/W/read"
  op: "Identity"
  input: "output/W"
  attr {
    key: "T"
    value {
      type: DT_FLOAT
    }
  }
  attr {
    key: "_class"
    value {
      list {
        s: "loc:@output/W"
      }
    }
  }
}
node {
  name: "output/b/Initializer/Const"
  op: "Const"
  attr {
    key: "_class"
    value {
      list {
        s: "loc:@output/b"
      }
    }
  }
  attr {
    key: "dtype"
    value {
      type: DT_FLOAT
    }
  }
  attr {
    key: "value"
    value {
      tensor {
        dtype: DT_FLOAT
        tensor_shape {
          dim {
            size: 2
          }
        }
        float_val: 0.0
      }
    }
  }
}
node {
  name: "output/b"
  op: "VariableV2"
  attr {
    key: "_class"
    value {
      list {
        s: "loc:@output/b"
      }
    }
  }
  attr {
    key: "container"
    value {
      s: ""
    }
  }
  attr {
    key: "dtype"
    value {
      type: DT_FLOAT
    }
  }
  attr {
    key: "shape"
    value {
      shape {
        dim {
          size: 2
        }
      }
    }
  }
  attr {
    key: "shared_name"
    value {
      s: ""
    }
  }
}
node {
  name: "output/b/Assign"
  op: "Assign"
  input: "output/b"
  input: "output/b/Initializer/Const"
  attr {
    key: "T"
    value {
      type: DT_FLOAT
    }
  }
  attr {
    key: "_class"
    value {
      list {
        s: "loc:@output/b"
      }
    }
  }
  attr {
    key: "use_locking"
    value {
      b: true
    }
  }
  attr {
    key: "validate_shape"
    value {
      b: true
    }
  }
}
node {
  name: "output/b/read"
  op: "Identity"
  input: "output/b"
  attr {
    key: "T"
    value {
      type: DT_FLOAT
    }
  }
  attr {
    key: "_class"
    value {
      list {
        s: "loc:@output/b"
      }
    }
  }
}
node {
  name: "output/MatMul"
  op: "MatMul"
  input: "FullyConnected/Relu"
  input: "output/W/read"
  attr {
    key: "T"
    value {
      type: DT_FLOAT
    }
  }
  attr {
    key: "transpose_a"
    value {
      b: false
    }
  }
  attr {
    key: "transpose_b"
    value {
      b: false
    }
  }
}
node {
  name: "output/BiasAdd"
  op: "BiasAdd"
  input: "output/MatMul"
  input: "output/b/read"
  attr {
    key: "T"
    value {
      type: DT_FLOAT
    }
  }
  attr {
    key: "data_format"
    value {
      s: "NHWC"
    }
  }
}
node {
  name: "output/Softmax"
  op: "Softmax"
  input: "output/BiasAdd"
  attr {
    key: "T"
    value {
      type: DT_FLOAT
    }
  }
}
node {
  name: "targets/Y"
  op: "Placeholder"
  attr {
    key: "dtype"
    value {
      type: DT_FLOAT
    }
  }
  attr {
    key: "shape"
    value {
      shape {
        dim {
          size: -1
        }
        dim {
          size: 2
        }
      }
    }
  }
}
node {
  name: "Accuracy/ArgMax/dimension"
  op: "Const"
  attr {
    key: "dtype"
    value {
      type: DT_INT32
    }
  }
  attr {
    key: "value"
    value {
      tensor {
        dtype: DT_INT32
        tensor_shape {
        }
        int_val: 1
      }
    }
  }
}
node {
  name: "Accuracy/ArgMax"
  op: "ArgMax"
  input: "output/Softmax"
  input: "Accuracy/ArgMax/dimension"
  attr {
    key: "T"
    value {
      type: DT_FLOAT
    }
  }
  attr {
    key: "Tidx"
    value {
      type: DT_INT32
    }
  }
}
node {
  name: "Accuracy/ArgMax_1/dimension"
  op: "Const"
  attr {
    key: "dtype"
    value {
      type: DT_INT32
    }
  }
  attr {
    key: "value"
    value {
      tensor {
        dtype: DT_INT32
        tensor_shape {
        }
        int_val: 1
      }
    }
  }
}
node {
  name: "Accuracy/ArgMax_1"
  op: "ArgMax"
  input: "targets/Y"
  input: "Accuracy/ArgMax_1/dimension"
  attr {
    key: "T"
    value {
      type: DT_FLOAT
    }
  }
  attr {
    key: "Tidx"
    value {
      type: DT_INT32
    }
  }
}
node {
  name: "Accuracy/Equal"
  op: "Equal"
  input: "Accuracy/ArgMax"
  input: "Accuracy/ArgMax_1"
  attr {
    key: "T"
    value {
      type: DT_INT64
    }
  }
}
node {
  name: "Accuracy/Cast"
  op: "Cast"
  input: "Accuracy/Equal"
  attr {
    key: "DstT"
    value {
      type: DT_FLOAT
    }
  }
  attr {
    key: "SrcT"
    value {
      type: DT_BOOL
    }
  }
}
node {
  name: "Accuracy/Const"
  op: "Const"
  attr {
    key: "dtype"
    value {
      type: DT_INT32
    }
  }
  attr {
    key: "value"
    value {
      tensor {
        dtype: DT_INT32
        tensor_shape {
          dim {
            size: 1
          }
        }
        int_val: 0
      }
    }
  }
}
node {
  name: "Accuracy/Mean"
  op: "Mean"
  input: "Accuracy/Cast"
  input: "Accuracy/Const"
  attr {
    key: "T"
    value {
      type: DT_FLOAT
    }
  }
  attr {
    key: "Tidx"
    value {
      type: DT_INT32
    }
  }
  attr {
    key: "keep_dims"
    value {
      b: false
    }
  }
}
node {
  name: "Crossentropy/Sum/reduction_indices"
  op: "Const"
  attr {
    key: "dtype"
    value {
      type: DT_INT32
    }
  }
  attr {
    key: "value"
    value {
      tensor {
        dtype: DT_INT32
        tensor_shape {
        }
        int_val: 1
      }
    }
  }
}
node {
  name: "Crossentropy/Sum"
  op: "Sum"
  input: "output/Softmax"
  input: "Crossentropy/Sum/reduction_indices"
  attr {
    key: "T"
    value {
      type: DT_FLOAT
    }
  }
  attr {
    key: "Tidx"
    value {
      type: DT_INT32
    }
  }
  attr {
    key: "keep_dims"
    value {
      b: true
    }
  }
}
node {
  name: "Crossentropy/truediv"
  op: "RealDiv"
  input: "output/Softmax"
  input: "Crossentropy/Sum"
  attr {
    key: "T"
    value {
      type: DT_FLOAT
    }
  }
}
node {
  name: "Crossentropy/Cast/x"
  op: "Const"
  attr {
    key: "dtype"
    value {
      type: DT_FLOAT
    }
  }
  attr {
    key: "value"
    value {
      tensor {
        dtype: DT_FLOAT
        tensor_shape {
        }
        float_val: 1.000000013351432e-10
      }
    }
  }
}
node {
  name: "Crossentropy/Cast_1/x"
  op: "Const"
  attr {
    key: "dtype"
    value {
      type: DT_FLOAT
    }
  }
  attr {
    key: "value"
    value {
      tensor {
        dtype: DT_FLOAT
        tensor_shape {
        }
        float_val: 1.0
      }
    }
  }
}
node {
  name: "Crossentropy/clip_by_value/Minimum"
  op: "Minimum"
  input: "Crossentropy/truediv"
  input: "Crossentropy/Cast_1/x"
  attr {
    key: "T"
    value {
      type: DT_FLOAT
    }
  }
}
node {
  name: "Crossentropy/clip_by_value"
  op: "Maximum"
  input: "Crossentropy/clip_by_value/Minimum"
  input: "Crossentropy/Cast/x"
  attr {
    key: "T"
    value {
      type: DT_FLOAT
    }
  }
}
node {
  name: "Crossentropy/Log"
  op: "Log"
  input: "Crossentropy/clip_by_value"
  attr {
    key: "T"
    value {
      type: DT_FLOAT
    }
  }
}
node {
  name: "Crossentropy/mul"
  op: "Mul"
  input: "targets/Y"
  input: "Crossentropy/Log"
  attr {
    key: "T"
    value {
      type: DT_FLOAT
    }
  }
}
node {
  name: "Crossentropy/Sum_1/reduction_indices"
  op: "Const"
  attr {
    key: "dtype"
    value {
      type: DT_INT32
    }
  }
  attr {
    key: "value"
    value {
      tensor {
        dtype: DT_INT32
        tensor_shape {
        }
        int_val: 1
      }
    }
  }
}
node {
  name: "Crossentropy/Sum_1"
  op: "Sum"
  input: "Crossentropy/mul"
  input: "Crossentropy/Sum_1/reduction_indices"
  attr {
    key: "T"
    value {
      type: DT_FLOAT
    }
  }
  attr {
    key: "Tidx"
    value {
      type: DT_INT32
    }
  }
  attr {
    key: "keep_dims"
    value {
      b: false
    }
  }
}
node {
  name: "Crossentropy/Neg"
  op: "Neg"
  input: "Crossentropy/Sum_1"
  attr {
    key: "T"
    value {
      type: DT_FLOAT
    }
  }
}
node {
  name: "Crossentropy/Const"
  op: "Const"
  attr {
    key: "dtype"
    value {
      type: DT_INT32
    }
  }
  attr {
    key: "value"
    value {
      tensor {
        dtype: DT_INT32
        tensor_shape {
          dim {
            size: 1
          }
        }
        int_val: 0
      }
    }
  }
}
node {
  name: "Crossentropy/Mean"
  op: "Mean"
  input: "Crossentropy/Neg"
  input: "Crossentropy/Const"
  attr {
    key: "T"
    value {
      type: DT_FLOAT
    }
  }
  attr {
    key: "Tidx"
    value {
      type: DT_INT32
    }
  }
  attr {
    key: "keep_dims"
    value {
      b: false
    }
  }
}
node {
  name: "Training_step/initial_value"
  op: "Const"
  attr {
    key: "dtype"
    value {
      type: DT_FLOAT
    }
  }
  attr {
    key: "value"
    value {
      tensor {
        dtype: DT_FLOAT
        tensor_shape {
        }
        float_val: 0.0
      }
    }
  }
}
node {
  name: "Training_step"
  op: "VariableV2"
  attr {
    key: "container"
    value {
      s: ""
    }
  }
  attr {
    key: "dtype"
    value {
      type: DT_FLOAT
    }
  }
  attr {
    key: "shape"
    value {
      shape {
      }
    }
  }
  attr {
    key: "shared_name"
    value {
      s: ""
    }
  }
}
node {
  name: "Training_step/Assign"
  op: "Assign"
  input: "Training_step"
  input: "Training_step/initial_value"
  attr {
    key: "T"
    value {
      type: DT_FLOAT
    }
  }
  attr {
    key: "_class"
    value {
      list {
        s: "loc:@Training_step"
      }
    }
  }
  attr {
    key: "use_locking"
    value {
      b: true
    }
  }
  attr {
    key: "validate_shape"
    value {
      b: true
    }
  }
}
node {
  name: "Training_step/read"
  op: "Identity"
  input: "Training_step"
  attr {
    key: "T"
    value {
      type: DT_FLOAT
    }
  }
  attr {
    key: "_class"
    value {
      list {
        s: "loc:@Training_step"
      }
    }
  }
}
node {
  name: "Global_Step/initial_value"
  op: "Const"
  attr {
    key: "dtype"
    value {
      type: DT_FLOAT
    }
  }
  attr {
    key: "value"
    value {
      tensor {
        dtype: DT_FLOAT
        tensor_shape {
        }
        float_val: 0.0
      }
    }
  }
}
node {
  name: "Global_Step"
  op: "VariableV2"
  attr {
    key: "container"
    value {
      s: ""
    }
  }
  attr {
    key: "dtype"
    value {
      type: DT_FLOAT
    }
  }
  attr {
    key: "shape"
    value {
      shape {
      }
    }
  }
  attr {
    key: "shared_name"
    value {
      s: ""
    }
  }
}
node {
  name: "Global_Step/Assign"
  op: "Assign"
  input: "Global_Step"
  input: "Global_Step/initial_value"
  attr {
    key: "T"
    value {
      type: DT_FLOAT
    }
  }
  attr {
    key: "_class"
    value {
      list {
        s: "loc:@Global_Step"
      }
    }
  }
  attr {
    key: "use_locking"
    value {
      b: true
    }
  }
  attr {
    key: "validate_shape"
    value {
      b: true
    }
  }
}
node {
  name: "Global_Step/read"
  op: "Identity"
  input: "Global_Step"
  attr {
    key: "T"
    value {
      type: DT_FLOAT
    }
  }
  attr {
    key: "_class"
    value {
      list {
        s: "loc:@Global_Step"
      }
    }
  }
}
node {
  name: "Add/y"
  op: "Const"
  attr {
    key: "dtype"
    value {
      type: DT_FLOAT
    }
  }
  attr {
    key: "value"
    value {
      tensor {
        dtype: DT_FLOAT
        tensor_shape {
        }
        float_val: 1.0
      }
    }
  }
}
node {
  name: "Add"
  op: "Add"
  input: "Global_Step/read"
  input: "Add/y"
  attr {
    key: "T"
    value {
      type: DT_FLOAT
    }
  }
}
node {
  name: "Assign_2"
  op: "Assign"
  input: "Global_Step"
  input: "Add"
  attr {
    key: "T"
    value {
      type: DT_FLOAT
    }
  }
  attr {
    key: "_class"
    value {
      list {
        s: "loc:@Global_Step"
      }
    }
  }
  attr {
    key: "use_locking"
    value {
      b: true
    }
  }
  attr {
    key: "validate_shape"
    value {
      b: true
    }
  }
}
node {
  name: "val_loss/initial_value"
  op: "Const"
  attr {
    key: "dtype"
    value {
      type: DT_FLOAT
    }
  }
  attr {
    key: "value"
    value {
      tensor {
        dtype: DT_FLOAT
        tensor_shape {
        }
        float_val: 0.0
      }
    }
  }
}
node {
  name: "val_loss"
  op: "VariableV2"
  attr {
    key: "container"
    value {
      s: ""
    }
  }
  attr {
    key: "dtype"
    value {
      type: DT_FLOAT
    }
  }
  attr {
    key: "shape"
    value {
      shape {
      }
    }
  }
  attr {
    key: "shared_name"
    value {
      s: ""
    }
  }
}
node {
  name: "val_loss/Assign"
  op: "Assign"
  input: "val_loss"
  input: "val_loss/initial_value"
  attr {
    key: "T"
    value {
      type: DT_FLOAT
    }
  }
  attr {
    key: "_class"
    value {
      list {
        s: "loc:@val_loss"
      }
    }
  }
  attr {
    key: "use_locking"
    value {
      b: true
    }
  }
  attr {
    key: "validate_shape"
    value {
      b: true
    }
  }
}
node {
  name: "val_loss/read"
  op: "Identity"
  input: "val_loss"
  attr {
    key: "T"
    value {
      type: DT_FLOAT
    }
  }
  attr {
    key: "_class"
    value {
      list {
        s: "loc:@val_loss"
      }
    }
  }
}
node {
  name: "val_acc/initial_value"
  op: "Const"
  attr {
    key: "dtype"
    value {
      type: DT_FLOAT
    }
  }
  attr {
    key: "value"
    value {
      tensor {
        dtype: DT_FLOAT
        tensor_shape {
        }
        float_val: 0.0
      }
    }
  }
}
node {
  name: "val_acc"
  op: "VariableV2"
  attr {
    key: "container"
    value {
      s: ""
    }
  }
  attr {
    key: "dtype"
    value {
      type: DT_FLOAT
    }
  }
  attr {
    key: "shape"
    value {
      shape {
      }
    }
  }
  attr {
    key: "shared_name"
    value {
      s: ""
    }
  }
}
node {
  name: "val_acc/Assign"
  op: "Assign"
  input: "val_acc"
  input: "val_acc/initial_value"
  attr {
    key: "T"
    value {
      type: DT_FLOAT
    }
  }
  attr {
    key: "_class"
    value {
      list {
        s: "loc:@val_acc"
      }
    }
  }
  attr {
    key: "use_locking"
    value {
      b: true
    }
  }
  attr {
    key: "validate_shape"
    value {
      b: true
    }
  }
}
node {
  name: "val_acc/read"
  op: "Identity"
  input: "val_acc"
  attr {
    key: "T"
    value {
      type: DT_FLOAT
    }
  }
  attr {
    key: "_class"
    value {
      list {
        s: "loc:@val_acc"
      }
    }
  }
}
node {
  name: "placeholder/val_loss"
  op: "Placeholder"
  attr {
    key: "dtype"
    value {
      type: DT_FLOAT
    }
  }
  attr {
    key: "shape"
    value {
      shape {
        unknown_rank: true
      }
    }
  }
}
node {
  name: "placeholder/val_acc"
  op: "Placeholder"
  attr {
    key: "dtype"
    value {
      type: DT_FLOAT
    }
  }
  attr {
    key: "shape"
    value {
      shape {
        unknown_rank: true
      }
    }
  }
}
node {
  name: "assign/val_loss"
  op: "Assign"
  input: "val_loss"
  input: "placeholder/val_loss"
  attr {
    key: "T"
    value {
      type: DT_FLOAT
    }
  }
  attr {
    key: "_class"
    value {
      list {
        s: "loc:@val_loss"
      }
    }
  }
  attr {
    key: "use_locking"
    value {
      b: true
    }
  }
  attr {
    key: "validate_shape"
    value {
      b: true
    }
  }
}
node {
  name: "assign/val_acc"
  op: "Assign"
  input: "val_acc"
  input: "placeholder/val_acc"
  attr {
    key: "T"
    value {
      type: DT_FLOAT
    }
  }
  attr {
    key: "_class"
    value {
      list {
        s: "loc:@val_acc"
      }
    }
  }
  attr {
    key: "use_locking"
    value {
      b: true
    }
  }
  attr {
    key: "validate_shape"
    value {
      b: true
    }
  }
}
node {
  name: "Accuracy/Mean/moving_avg/Initializer/zeros"
  op: "Const"
  attr {
    key: "_class"
    value {
      list {
        s: "loc:@Accuracy/Mean/moving_avg"
      }
    }
  }
  attr {
    key: "dtype"
    value {
      type: DT_FLOAT
    }
  }
  attr {
    key: "value"
    value {
      tensor {
        dtype: DT_FLOAT
        tensor_shape {
        }
        float_val: 0.0
      }
    }
  }
}
node {
  name: "Accuracy/Mean/moving_avg"
  op: "VariableV2"
  attr {
    key: "_class"
    value {
      list {
        s: "loc:@Accuracy/Mean/moving_avg"
      }
    }
  }
  attr {
    key: "container"
    value {
      s: ""
    }
  }
  attr {
    key: "dtype"
    value {
      type: DT_FLOAT
    }
  }
  attr {
    key: "shape"
    value {
      shape {
      }
    }
  }
  attr {
    key: "shared_name"
    value {
      s: ""
    }
  }
}
node {
  name: "Accuracy/Mean/moving_avg/Assign"
  op: "Assign"
  input: "Accuracy/Mean/moving_avg"
  input: "Accuracy/Mean/moving_avg/Initializer/zeros"
  attr {
    key: "T"
    value {
      type: DT_FLOAT
    }
  }
  attr {
    key: "_class"
    value {
      list {
        s: "loc:@Accuracy/Mean/moving_avg"
      }
    }
  }
  attr {
    key: "use_locking"
    value {
      b: true
    }
  }
  attr {
    key: "validate_shape"
    value {
      b: true
    }
  }
}
node {
  name: "Accuracy/Mean/moving_avg/read"
  op: "Identity"
  input: "Accuracy/Mean/moving_avg"
  attr {
    key: "T"
    value {
      type: DT_FLOAT
    }
  }
  attr {
    key: "_class"
    value {
      list {
        s: "loc:@Accuracy/Mean/moving_avg"
      }
    }
  }
}
node {
  name: "moving_avg/decay"
  op: "Const"
  attr {
    key: "dtype"
    value {
      type: DT_FLOAT
    }
  }
  attr {
    key: "value"
    value {
      tensor {
        dtype: DT_FLOAT
        tensor_shape {
        }
        float_val: 0.8999999761581421
      }
    }
  }
}
node {
  name: "moving_avg/add/x"
  op: "Const"
  attr {
    key: "dtype"
    value {
      type: DT_FLOAT
    }
  }
  attr {
    key: "value"
    value {
      tensor {
        dtype: DT_FLOAT
        tensor_shape {
        }
        float_val: 1.0
      }
    }
  }
}
node {
  name: "moving_avg/add"
  op: "Add"
  input: "moving_avg/add/x"
  input: "Training_step/read"
  attr {
    key: "T"
    value {
      type: DT_FLOAT
    }
  }
}
node {
  name: "moving_avg/add_1/x"
  op: "Const"
  attr {
    key: "dtype"
    value {
      type: DT_FLOAT
    }
  }
  attr {
    key: "value"
    value {
      tensor {
        dtype: DT_FLOAT
        tensor_shape {
        }
        float_val: 10.0
      }
    }
  }
}
node {
  name: "moving_avg/add_1"
  op: "Add"
  input: "moving_avg/add_1/x"
  input: "Training_step/read"
  attr {
    key: "T"
    value {
      type: DT_FLOAT
    }
  }
}
node {
  name: "moving_avg/truediv"
  op: "RealDiv"
  input: "moving_avg/add"
  input: "moving_avg/add_1"
  attr {
    key: "T"
    value {
      type: DT_FLOAT
    }
  }
}
node {
  name: "moving_avg/Minimum"
  op: "Minimum"
  input: "moving_avg/decay"
  input: "moving_avg/truediv"
  attr {
    key: "T"
    value {
      type: DT_FLOAT
    }
  }
}
node {
  name: "moving_avg/AssignMovingAvg/sub/x"
  op: "Const"
  attr {
    key: "_class"
    value {
      list {
        s: "loc:@Accuracy/Mean/moving_avg"
      }
    }
  }
  attr {
    key: "dtype"
    value {
      type: DT_FLOAT
    }
  }
  attr {
    key: "value"
    value {
      tensor {
        dtype: DT_FLOAT
        tensor_shape {
        }
        float_val: 1.0
      }
    }
  }
}
node {
  name: "moving_avg/AssignMovingAvg/sub"
  op: "Sub"
  input: "moving_avg/AssignMovingAvg/sub/x"
  input: "moving_avg/Minimum"
  attr {
    key: "T"
    value {
      type: DT_FLOAT
    }
  }
  attr {
    key: "_class"
    value {
      list {
        s: "loc:@Accuracy/Mean/moving_avg"
      }
    }
  }
}
node {
  name: "moving_avg/AssignMovingAvg/sub_1"
  op: "Sub"
  input: "Accuracy/Mean/moving_avg/read"
  input: "Accuracy/Mean"
  attr {
    key: "T"
    value {
      type: DT_FLOAT
    }
  }
  attr {
    key: "_class"
    value {
      list {
        s: "loc:@Accuracy/Mean/moving_avg"
      }
    }
  }
}
node {
  name: "moving_avg/AssignMovingAvg/mul"
  op: "Mul"
  input: "moving_avg/AssignMovingAvg/sub_1"
  input: "moving_avg/AssignMovingAvg/sub"
  attr {
    key: "T"
    value {
      type: DT_FLOAT
    }
  }
  attr {
    key: "_class"
    value {
      list {
        s: "loc:@Accuracy/Mean/moving_avg"
      }
    }
  }
}
node {
  name: "moving_avg/AssignMovingAvg"
  op: "AssignSub"
  input: "Accuracy/Mean/moving_avg"
  input: "moving_avg/AssignMovingAvg/mul"
  attr {
    key: "T"
    value {
      type: DT_FLOAT
    }
  }
  attr {
    key: "_class"
    value {
      list {
        s: "loc:@Accuracy/Mean/moving_avg"
      }
    }
  }
  attr {
    key: "use_locking"
    value {
      b: false
    }
  }
}
node {
  name: "moving_avg"
  op: "NoOp"
  input: "^moving_avg/AssignMovingAvg"
}
node {
  name: "Adam/Total_Loss"
  op: "Identity"
  input: "Crossentropy/Mean"
  attr {
    key: "T"
    value {
      type: DT_FLOAT
    }
  }
}
node {
  name: "Crossentropy/Mean/moving_avg/Initializer/zeros"
  op: "Const"
  attr {
    key: "_class"
    value {
      list {
        s: "loc:@Crossentropy/Mean/moving_avg"
      }
    }
  }
  attr {
    key: "dtype"
    value {
      type: DT_FLOAT
    }
  }
  attr {
    key: "value"
    value {
      tensor {
        dtype: DT_FLOAT
        tensor_shape {
        }
        float_val: 0.0
      }
    }
  }
}
node {
  name: "Crossentropy/Mean/moving_avg"
  op: "VariableV2"
  attr {
    key: "_class"
    value {
      list {
        s: "loc:@Crossentropy/Mean/moving_avg"
      }
    }
  }
  attr {
    key: "container"
    value {
      s: ""
    }
  }
  attr {
    key: "dtype"
    value {
      type: DT_FLOAT
    }
  }
  attr {
    key: "shape"
    value {
      shape {
      }
    }
  }
  attr {
    key: "shared_name"
    value {
      s: ""
    }
  }
}
node {
  name: "Crossentropy/Mean/moving_avg/Assign"
  op: "Assign"
  input: "Crossentropy/Mean/moving_avg"
  input: "Crossentropy/Mean/moving_avg/Initializer/zeros"
  attr {
    key: "T"
    value {
      type: DT_FLOAT
    }
  }
  attr {
    key: "_class"
    value {
      list {
        s: "loc:@Crossentropy/Mean/moving_avg"
      }
    }
  }
  attr {
    key: "use_locking"
    value {
      b: true
    }
  }
  attr {
    key: "validate_shape"
    value {
      b: true
    }
  }
}
node {
  name: "Crossentropy/Mean/moving_avg/read"
  op: "Identity"
  input: "Crossentropy/Mean/moving_avg"
  attr {
    key: "T"
    value {
      type: DT_FLOAT
    }
  }
  attr {
    key: "_class"
    value {
      list {
        s: "loc:@Crossentropy/Mean/moving_avg"
      }
    }
  }
}
node {
  name: "Adam/moving_avg/decay"
  op: "Const"
  attr {
    key: "dtype"
    value {
      type: DT_FLOAT
    }
  }
  attr {
    key: "value"
    value {
      tensor {
        dtype: DT_FLOAT
        tensor_shape {
        }
        float_val: 0.8999999761581421
      }
    }
  }
}
node {
  name: "Adam/moving_avg/add/x"
  op: "Const"
  attr {
    key: "dtype"
    value {
      type: DT_FLOAT
    }
  }
  attr {
    key: "value"
    value {
      tensor {
        dtype: DT_FLOAT
        tensor_shape {
        }
        float_val: 1.0
      }
    }
  }
}
node {
  name: "Adam/moving_avg/add"
  op: "Add"
  input: "Adam/moving_avg/add/x"
  input: "Training_step/read"
  attr {
    key: "T"
    value {
      type: DT_FLOAT
    }
  }
}
node {
  name: "Adam/moving_avg/add_1/x"
  op: "Const"
  attr {
    key: "dtype"
    value {
      type: DT_FLOAT
    }
  }
  attr {
    key: "value"
    value {
      tensor {
        dtype: DT_FLOAT
        tensor_shape {
        }
        float_val: 10.0
      }
    }
  }
}
node {
  name: "Adam/moving_avg/add_1"
  op: "Add"
  input: "Adam/moving_avg/add_1/x"
  input: "Training_step/read"
  attr {
    key: "T"
    value {
      type: DT_FLOAT
    }
  }
}
node {
  name: "Adam/moving_avg/truediv"
  op: "RealDiv"
  input: "Adam/moving_avg/add"
  input: "Adam/moving_avg/add_1"
  attr {
    key: "T"
    value {
      type: DT_FLOAT
    }
  }
}
node {
  name: "Adam/moving_avg/Minimum"
  op: "Minimum"
  input: "Adam/moving_avg/decay"
  input: "Adam/moving_avg/truediv"
  attr {
    key: "T"
    value {
      type: DT_FLOAT
    }
  }
}
node {
  name: "Adam/moving_avg/AssignMovingAvg/sub/x"
  op: "Const"
  attr {
    key: "_class"
    value {
      list {
        s: "loc:@Crossentropy/Mean/moving_avg"
      }
    }
  }
  attr {
    key: "dtype"
    value {
      type: DT_FLOAT
    }
  }
  attr {
    key: "value"
    value {
      tensor {
        dtype: DT_FLOAT
        tensor_shape {
        }
        float_val: 1.0
      }
    }
  }
}
node {
  name: "Adam/moving_avg/AssignMovingAvg/sub"
  op: "Sub"
  input: "Adam/moving_avg/AssignMovingAvg/sub/x"
  input: "Adam/moving_avg/Minimum"
  attr {
    key: "T"
    value {
      type: DT_FLOAT
    }
  }
  attr {
    key: "_class"
    value {
      list {
        s: "loc:@Crossentropy/Mean/moving_avg"
      }
    }
  }
}
node {
  name: "Adam/moving_avg/AssignMovingAvg/sub_1"
  op: "Sub"
  input: "Crossentropy/Mean/moving_avg/read"
  input: "Crossentropy/Mean"
  attr {
    key: "T"
    value {
      type: DT_FLOAT
    }
  }
  attr {
    key: "_class"
    value {
      list {
        s: "loc:@Crossentropy/Mean/moving_avg"
      }
    }
  }
}
node {
  name: "Adam/moving_avg/AssignMovingAvg/mul"
  op: "Mul"
  input: "Adam/moving_avg/AssignMovingAvg/sub_1"
  input: "Adam/moving_avg/AssignMovingAvg/sub"
  attr {
    key: "T"
    value {
      type: DT_FLOAT
    }
  }
  attr {
    key: "_class"
    value {
      list {
        s: "loc:@Crossentropy/Mean/moving_avg"
      }
    }
  }
}
node {
  name: "Adam/moving_avg/AssignMovingAvg"
  op: "AssignSub"
  input: "Crossentropy/Mean/moving_avg"
  input: "Adam/moving_avg/AssignMovingAvg/mul"
  attr {
    key: "T"
    value {
      type: DT_FLOAT
    }
  }
  attr {
    key: "_class"
    value {
      list {
        s: "loc:@Crossentropy/Mean/moving_avg"
      }
    }
  }
  attr {
    key: "use_locking"
    value {
      b: false
    }
  }
}
node {
  name: "Adam/moving_avg"
  op: "NoOp"
  input: "^Adam/moving_avg/AssignMovingAvg"
}
node {
  name: "Loss/tags"
  op: "Const"
  attr {
    key: "dtype"
    value {
      type: DT_STRING
    }
  }
  attr {
    key: "value"
    value {
      tensor {
        dtype: DT_STRING
        tensor_shape {
        }
        string_val: "Loss"
      }
    }
  }
}
node {
  name: "Loss"
  op: "ScalarSummary"
  input: "Loss/tags"
  input: "Crossentropy/Mean/moving_avg/read"
  attr {
    key: "T"
    value {
      type: DT_FLOAT
    }
  }
}
node {
  name: "Adam/Loss/raw/tags"
  op: "Const"
  attr {
    key: "dtype"
    value {
      type: DT_STRING
    }
  }
  attr {
    key: "value"
    value {
      tensor {
        dtype: DT_STRING
        tensor_shape {
        }
        string_val: "Adam/Loss/raw"
      }
    }
  }
}
node {
  name: "Adam/Loss/raw"
  op: "ScalarSummary"
  input: "Adam/Loss/raw/tags"
  input: "Crossentropy/Mean"
  attr {
    key: "T"
    value {
      type: DT_FLOAT
    }
  }
}
node {
  name: "Adam/gradients/Shape"
  op: "Const"
  input: "^Adam/moving_avg"
  input: "^moving_avg"
  attr {
    key: "dtype"
    value {
      type: DT_INT32
    }
  }
  attr {
    key: "value"
    value {
      tensor {
        dtype: DT_INT32
        tensor_shape {
          dim {
          }
        }
      }
    }
  }
}
node {
  name: "Adam/gradients/Const"
  op: "Const"
  input: "^Adam/moving_avg"
  input: "^moving_avg"
  attr {
    key: "dtype"
    value {
      type: DT_FLOAT
    }
  }
  attr {
    key: "value"
    value {
      tensor {
        dtype: DT_FLOAT
        tensor_shape {
        }
        float_val: 1.0
      }
    }
  }
}
node {
  name: "Adam/gradients/Fill"
  op: "Fill"
  input: "Adam/gradients/Shape"
  input: "Adam/gradients/Const"
  attr {
    key: "T"
    value {
      type: DT_FLOAT
    }
  }
}
node {
  name: "Adam/gradients/Crossentropy/Mean_grad/Reshape/shape"
  op: "Const"
  input: "^Adam/moving_avg"
  input: "^moving_avg"
  attr {
    key: "dtype"
    value {
      type: DT_INT32
    }
  }
  attr {
    key: "value"
    value {
      tensor {
        dtype: DT_INT32
        tensor_shape {
          dim {
            size: 1
          }
        }
        int_val: 1
      }
    }
  }
}
node {
  name: "Adam/gradients/Crossentropy/Mean_grad/Reshape"
  op: "Reshape"
  input: "Adam/gradients/Fill"
  input: "Adam/gradients/Crossentropy/Mean_grad/Reshape/shape"
  attr {
    key: "T"
    value {
      type: DT_FLOAT
    }
  }
  attr {
    key: "Tshape"
    value {
      type: DT_INT32
    }
  }
}
node {
  name: "Adam/gradients/Crossentropy/Mean_grad/Shape"
  op: "Shape"
  input: "Crossentropy/Neg"
  input: "^Adam/moving_avg"
  input: "^moving_avg"
  attr {
    key: "T"
    value {
      type: DT_FLOAT
    }
  }
  attr {
    key: "out_type"
    value {
      type: DT_INT32
    }
  }
}
node {
  name: "Adam/gradients/Crossentropy/Mean_grad/Tile"
  op: "Tile"
  input: "Adam/gradients/Crossentropy/Mean_grad/Reshape"
  input: "Adam/gradients/Crossentropy/Mean_grad/Shape"
  attr {
    key: "T"
    value {
      type: DT_FLOAT
    }
  }
  attr {
    key: "Tmultiples"
    value {
      type: DT_INT32
    }
  }
}
node {
  name: "Adam/gradients/Crossentropy/Mean_grad/Shape_1"
  op: "Shape"
  input: "Crossentropy/Neg"
  input: "^Adam/moving_avg"
  input: "^moving_avg"
  attr {
    key: "T"
    value {
      type: DT_FLOAT
    }
  }
  attr {
    key: "out_type"
    value {
      type: DT_INT32
    }
  }
}
node {
  name: "Adam/gradients/Crossentropy/Mean_grad/Shape_2"
  op: "Const"
  input: "^Adam/moving_avg"
  input: "^moving_avg"
  attr {
    key: "dtype"
    value {
      type: DT_INT32
    }
  }
  attr {
    key: "value"
    value {
      tensor {
        dtype: DT_INT32
        tensor_shape {
          dim {
          }
        }
      }
    }
  }
}
node {
  name: "Adam/gradients/Crossentropy/Mean_grad/Const"
  op: "Const"
  input: "^Adam/moving_avg"
  input: "^moving_avg"
  attr {
    key: "dtype"
    value {
      type: DT_INT32
    }
  }
  attr {
    key: "value"
    value {
      tensor {
        dtype: DT_INT32
        tensor_shape {
          dim {
            size: 1
          }
        }
        int_val: 0
      }
    }
  }
}
node {
  name: "Adam/gradients/Crossentropy/Mean_grad/Prod"
  op: "Prod"
  input: "Adam/gradients/Crossentropy/Mean_grad/Shape_1"
  input: "Adam/gradients/Crossentropy/Mean_grad/Const"
  attr {
    key: "T"
    value {
      type: DT_INT32
    }
  }
  attr {
    key: "Tidx"
    value {
      type: DT_INT32
    }
  }
  attr {
    key: "keep_dims"
    value {
      b: false
    }
  }
}
node {
  name: "Adam/gradients/Crossentropy/Mean_grad/Const_1"
  op: "Const"
  input: "^Adam/moving_avg"
  input: "^moving_avg"
  attr {
    key: "dtype"
    value {
      type: DT_INT32
    }
  }
  attr {
    key: "value"
    value {
      tensor {
        dtype: DT_INT32
        tensor_shape {
          dim {
            size: 1
          }
        }
        int_val: 0
      }
    }
  }
}
node {
  name: "Adam/gradients/Crossentropy/Mean_grad/Prod_1"
  op: "Prod"
  input: "Adam/gradients/Crossentropy/Mean_grad/Shape_2"
  input: "Adam/gradients/Crossentropy/Mean_grad/Const_1"
  attr {
    key: "T"
    value {
      type: DT_INT32
    }
  }
  attr {
    key: "Tidx"
    value {
      type: DT_INT32
    }
  }
  attr {
    key: "keep_dims"
    value {
      b: false
    }
  }
}
node {
  name: "Adam/gradients/Crossentropy/Mean_grad/Maximum/y"
  op: "Const"
  input: "^Adam/moving_avg"
  input: "^moving_avg"
  attr {
    key: "dtype"
    value {
      type: DT_INT32
    }
  }
  attr {
    key: "value"
    value {
      tensor {
        dtype: DT_INT32
        tensor_shape {
        }
        int_val: 1
      }
    }
  }
}
node {
  name: "Adam/gradients/Crossentropy/Mean_grad/Maximum"
  op: "Maximum"
  input: "Adam/gradients/Crossentropy/Mean_grad/Prod_1"
  input: "Adam/gradients/Crossentropy/Mean_grad/Maximum/y"
  attr {
    key: "T"
    value {
      type: DT_INT32
    }
  }
}
node {
  name: "Adam/gradients/Crossentropy/Mean_grad/floordiv"
  op: "FloorDiv"
  input: "Adam/gradients/Crossentropy/Mean_grad/Prod"
  input: "Adam/gradients/Crossentropy/Mean_grad/Maximum"
  attr {
    key: "T"
    value {
      type: DT_INT32
    }
  }
}
node {
  name: "Adam/gradients/Crossentropy/Mean_grad/Cast"
  op: "Cast"
  input: "Adam/gradients/Crossentropy/Mean_grad/floordiv"
  attr {
    key: "DstT"
    value {
      type: DT_FLOAT
    }
  }
  attr {
    key: "SrcT"
    value {
      type: DT_INT32
    }
  }
}
node {
  name: "Adam/gradients/Crossentropy/Mean_grad/truediv"
  op: "RealDiv"
  input: "Adam/gradients/Crossentropy/Mean_grad/Tile"
  input: "Adam/gradients/Crossentropy/Mean_grad/Cast"
  attr {
    key: "T"
    value {
      type: DT_FLOAT
    }
  }
}
node {
  name: "Adam/gradients/Crossentropy/Neg_grad/Neg"
  op: "Neg"
  input: "Adam/gradients/Crossentropy/Mean_grad/truediv"
  attr {
    key: "T"
    value {
      type: DT_FLOAT
    }
  }
}
node {
  name: "Adam/gradients/Crossentropy/Sum_1_grad/Shape"
  op: "Shape"
  input: "Crossentropy/mul"
  input: "^Adam/moving_avg"
  input: "^moving_avg"
  attr {
    key: "T"
    value {
      type: DT_FLOAT
    }
  }
  attr {
    key: "out_type"
    value {
      type: DT_INT32
    }
  }
}
node {
  name: "Adam/gradients/Crossentropy/Sum_1_grad/Size"
  op: "Const"
  input: "^Adam/moving_avg"
  input: "^moving_avg"
  attr {
    key: "dtype"
    value {
      type: DT_INT32
    }
  }
  attr {
    key: "value"
    value {
      tensor {
        dtype: DT_INT32
        tensor_shape {
        }
        int_val: 2
      }
    }
  }
}
node {
  name: "Adam/gradients/Crossentropy/Sum_1_grad/add"
  op: "Add"
  input: "Crossentropy/Sum_1/reduction_indices"
  input: "Adam/gradients/Crossentropy/Sum_1_grad/Size"
  attr {
    key: "T"
    value {
      type: DT_INT32
    }
  }
}
node {
  name: "Adam/gradients/Crossentropy/Sum_1_grad/mod"
  op: "FloorMod"
  input: "Adam/gradients/Crossentropy/Sum_1_grad/add"
  input: "Adam/gradients/Crossentropy/Sum_1_grad/Size"
  attr {
    key: "T"
    value {
      type: DT_INT32
    }
  }
}
node {
  name: "Adam/gradients/Crossentropy/Sum_1_grad/Shape_1"
  op: "Const"
  input: "^Adam/moving_avg"
  input: "^moving_avg"
  attr {
    key: "dtype"
    value {
      type: DT_INT32
    }
  }
  attr {
    key: "value"
    value {
      tensor {
        dtype: DT_INT32
        tensor_shape {
          dim {
          }
        }
      }
    }
  }
}
node {
  name: "Adam/gradients/Crossentropy/Sum_1_grad/range/start"
  op: "Const"
  input: "^Adam/moving_avg"
  input: "^moving_avg"
  attr {
    key: "dtype"
    value {
      type: DT_INT32
    }
  }
  attr {
    key: "value"
    value {
      tensor {
        dtype: DT_INT32
        tensor_shape {
        }
        int_val: 0
      }
    }
  }
}
node {
  name: "Adam/gradients/Crossentropy/Sum_1_grad/range/delta"
  op: "Const"
  input: "^Adam/moving_avg"
  input: "^moving_avg"
  attr {
    key: "dtype"
    value {
      type: DT_INT32
    }
  }
  attr {
    key: "value"
    value {
      tensor {
        dtype: DT_INT32
        tensor_shape {
        }
        int_val: 1
      }
    }
  }
}
node {
  name: "Adam/gradients/Crossentropy/Sum_1_grad/range"
  op: "Range"
  input: "Adam/gradients/Crossentropy/Sum_1_grad/range/start"
  input: "Adam/gradients/Crossentropy/Sum_1_grad/Size"
  input: "Adam/gradients/Crossentropy/Sum_1_grad/range/delta"
  attr {
    key: "Tidx"
    value {
      type: DT_INT32
    }
  }
}
node {
  name: "Adam/gradients/Crossentropy/Sum_1_grad/Fill/value"
  op: "Const"
  input: "^Adam/moving_avg"
  input: "^moving_avg"
  attr {
    key: "dtype"
    value {
      type: DT_INT32
    }
  }
  attr {
    key: "value"
    value {
      tensor {
        dtype: DT_INT32
        tensor_shape {
        }
        int_val: 1
      }
    }
  }
}
node {
  name: "Adam/gradients/Crossentropy/Sum_1_grad/Fill"
  op: "Fill"
  input: "Adam/gradients/Crossentropy/Sum_1_grad/Shape_1"
  input: "Adam/gradients/Crossentropy/Sum_1_grad/Fill/value"
  attr {
    key: "T"
    value {
      type: DT_INT32
    }
  }
}
node {
  name: "Adam/gradients/Crossentropy/Sum_1_grad/DynamicStitch"
  op: "DynamicStitch"
  input: "Adam/gradients/Crossentropy/Sum_1_grad/range"
  input: "Adam/gradients/Crossentropy/Sum_1_grad/mod"
  input: "Adam/gradients/Crossentropy/Sum_1_grad/Shape"
  input: "Adam/gradients/Crossentropy/Sum_1_grad/Fill"
  attr {
    key: "N"
    value {
      i: 2
    }
  }
  attr {
    key: "T"
    value {
      type: DT_INT32
    }
  }
}
node {
  name: "Adam/gradients/Crossentropy/Sum_1_grad/Maximum/y"
  op: "Const"
  input: "^Adam/moving_avg"
  input: "^moving_avg"
  attr {
    key: "dtype"
    value {
      type: DT_INT32
    }
  }
  attr {
    key: "value"
    value {
      tensor {
        dtype: DT_INT32
        tensor_shape {
        }
        int_val: 1
      }
    }
  }
}
node {
  name: "Adam/gradients/Crossentropy/Sum_1_grad/Maximum"
  op: "Maximum"
  input: "Adam/gradients/Crossentropy/Sum_1_grad/DynamicStitch"
  input: "Adam/gradients/Crossentropy/Sum_1_grad/Maximum/y"
  attr {
    key: "T"
    value {
      type: DT_INT32
    }
  }
}
node {
  name: "Adam/gradients/Crossentropy/Sum_1_grad/floordiv"
  op: "FloorDiv"
  input: "Adam/gradients/Crossentropy/Sum_1_grad/Shape"
  input: "Adam/gradients/Crossentropy/Sum_1_grad/Maximum"
  attr {
    key: "T"
    value {
      type: DT_INT32
    }
  }
}
node {
  name: "Adam/gradients/Crossentropy/Sum_1_grad/Reshape"
  op: "Reshape"
  input: "Adam/gradients/Crossentropy/Neg_grad/Neg"
  input: "Adam/gradients/Crossentropy/Sum_1_grad/DynamicStitch"
  attr {
    key: "T"
    value {
      type: DT_FLOAT
    }
  }
  attr {
    key: "Tshape"
    value {
      type: DT_INT32
    }
  }
}
node {
  name: "Adam/gradients/Crossentropy/Sum_1_grad/Tile"
  op: "Tile"
  input: "Adam/gradients/Crossentropy/Sum_1_grad/Reshape"
  input: "Adam/gradients/Crossentropy/Sum_1_grad/floordiv"
  attr {
    key: "T"
    value {
      type: DT_FLOAT
    }
  }
  attr {
    key: "Tmultiples"
    value {
      type: DT_INT32
    }
  }
}
node {
  name: "Adam/gradients/Crossentropy/mul_grad/Shape"
  op: "Shape"
  input: "targets/Y"
  input: "^Adam/moving_avg"
  input: "^moving_avg"
  attr {
    key: "T"
    value {
      type: DT_FLOAT
    }
  }
  attr {
    key: "out_type"
    value {
      type: DT_INT32
    }
  }
}
node {
  name: "Adam/gradients/Crossentropy/mul_grad/Shape_1"
  op: "Shape"
  input: "Crossentropy/Log"
  input: "^Adam/moving_avg"
  input: "^moving_avg"
  attr {
    key: "T"
    value {
      type: DT_FLOAT
    }
  }
  attr {
    key: "out_type"
    value {
      type: DT_INT32
    }
  }
}
node {
  name: "Adam/gradients/Crossentropy/mul_grad/BroadcastGradientArgs"
  op: "BroadcastGradientArgs"
  input: "Adam/gradients/Crossentropy/mul_grad/Shape"
  input: "Adam/gradients/Crossentropy/mul_grad/Shape_1"
  attr {
    key: "T"
    value {
      type: DT_INT32
    }
  }
}
node {
  name: "Adam/gradients/Crossentropy/mul_grad/mul"
  op: "Mul"
  input: "Adam/gradients/Crossentropy/Sum_1_grad/Tile"
  input: "Crossentropy/Log"
  attr {
    key: "T"
    value {
      type: DT_FLOAT
    }
  }
}
node {
  name: "Adam/gradients/Crossentropy/mul_grad/Sum"
  op: "Sum"
  input: "Adam/gradients/Crossentropy/mul_grad/mul"
  input: "Adam/gradients/Crossentropy/mul_grad/BroadcastGradientArgs"
  attr {
    key: "T"
    value {
      type: DT_FLOAT
    }
  }
  attr {
    key: "Tidx"
    value {
      type: DT_INT32
    }
  }
  attr {
    key: "keep_dims"
    value {
      b: false
    }
  }
}
node {
  name: "Adam/gradients/Crossentropy/mul_grad/Reshape"
  op: "Reshape"
  input: "Adam/gradients/Crossentropy/mul_grad/Sum"
  input: "Adam/gradients/Crossentropy/mul_grad/Shape"
  attr {
    key: "T"
    value {
      type: DT_FLOAT
    }
  }
  attr {
    key: "Tshape"
    value {
      type: DT_INT32
    }
  }
}
node {
  name: "Adam/gradients/Crossentropy/mul_grad/mul_1"
  op: "Mul"
  input: "targets/Y"
  input: "Adam/gradients/Crossentropy/Sum_1_grad/Tile"
  attr {
    key: "T"
    value {
      type: DT_FLOAT
    }
  }
}
node {
  name: "Adam/gradients/Crossentropy/mul_grad/Sum_1"
  op: "Sum"
  input: "Adam/gradients/Crossentropy/mul_grad/mul_1"
  input: "Adam/gradients/Crossentropy/mul_grad/BroadcastGradientArgs:1"
  attr {
    key: "T"
    value {
      type: DT_FLOAT
    }
  }
  attr {
    key: "Tidx"
    value {
      type: DT_INT32
    }
  }
  attr {
    key: "keep_dims"
    value {
      b: false
    }
  }
}
node {
  name: "Adam/gradients/Crossentropy/mul_grad/Reshape_1"
  op: "Reshape"
  input: "Adam/gradients/Crossentropy/mul_grad/Sum_1"
  input: "Adam/gradients/Crossentropy/mul_grad/Shape_1"
  attr {
    key: "T"
    value {
      type: DT_FLOAT
    }
  }
  attr {
    key: "Tshape"
    value {
      type: DT_INT32
    }
  }
}
node {
  name: "Adam/gradients/Crossentropy/Log_grad/Reciprocal"
  op: "Reciprocal"
  input: "Crossentropy/clip_by_value"
  input: "^Adam/moving_avg"
  input: "^moving_avg"
  input: "^Adam/gradients/Crossentropy/mul_grad/Reshape_1"
  attr {
    key: "T"
    value {
      type: DT_FLOAT
    }
  }
}
node {
  name: "Adam/gradients/Crossentropy/Log_grad/mul"
  op: "Mul"
  input: "Adam/gradients/Crossentropy/mul_grad/Reshape_1"
  input: "Adam/gradients/Crossentropy/Log_grad/Reciprocal"
  attr {
    key: "T"
    value {
      type: DT_FLOAT
    }
  }
}
node {
  name: "Adam/gradients/Crossentropy/clip_by_value_grad/Shape"
  op: "Shape"
  input: "Crossentropy/clip_by_value/Minimum"
  input: "^Adam/moving_avg"
  input: "^moving_avg"
  attr {
    key: "T"
    value {
      type: DT_FLOAT
    }
  }
  attr {
    key: "out_type"
    value {
      type: DT_INT32
    }
  }
}
node {
  name: "Adam/gradients/Crossentropy/clip_by_value_grad/Shape_1"
  op: "Const"
  input: "^Adam/moving_avg"
  input: "^moving_avg"
  attr {
    key: "dtype"
    value {
      type: DT_INT32
    }
  }
  attr {
    key: "value"
    value {
      tensor {
        dtype: DT_INT32
        tensor_shape {
          dim {
          }
        }
      }
    }
  }
}
node {
  name: "Adam/gradients/Crossentropy/clip_by_value_grad/Shape_2"
  op: "Shape"
  input: "Adam/gradients/Crossentropy/Log_grad/mul"
  attr {
    key: "T"
    value {
      type: DT_FLOAT
    }
  }
  attr {
    key: "out_type"
    value {
      type: DT_INT32
    }
  }
}
node {
  name: "Adam/gradients/Crossentropy/clip_by_value_grad/zeros/Const"
  op: "Const"
  input: "^Adam/moving_avg"
  input: "^moving_avg"
  attr {
    key: "dtype"
    value {
      type: DT_FLOAT
    }
  }
  attr {
    key: "value"
    value {
      tensor {
        dtype: DT_FLOAT
        tensor_shape {
        }
        float_val: 0.0
      }
    }
  }
}
node {
  name: "Adam/gradients/Crossentropy/clip_by_value_grad/zeros"
  op: "Fill"
  input: "Adam/gradients/Crossentropy/clip_by_value_grad/Shape_2"
  input: "Adam/gradients/Crossentropy/clip_by_value_grad/zeros/Const"
  attr {
    key: "T"
    value {
      type: DT_FLOAT
    }
  }
}
node {
  name: "Adam/gradients/Crossentropy/clip_by_value_grad/GreaterEqual"
  op: "GreaterEqual"
  input: "Crossentropy/clip_by_value/Minimum"
  input: "Crossentropy/Cast/x"
  input: "^Adam/moving_avg"
  input: "^moving_avg"
  attr {
    key: "T"
    value {
      type: DT_FLOAT
    }
  }
}
node {
  name: "Adam/gradients/Crossentropy/clip_by_value_grad/BroadcastGradientArgs"
  op: "BroadcastGradientArgs"
  input: "Adam/gradients/Crossentropy/clip_by_value_grad/Shape"
  input: "Adam/gradients/Crossentropy/clip_by_value_grad/Shape_1"
  attr {
    key: "T"
    value {
      type: DT_INT32
    }
  }
}
node {
  name: "Adam/gradients/Crossentropy/clip_by_value_grad/Select"
  op: "Select"
  input: "Adam/gradients/Crossentropy/clip_by_value_grad/GreaterEqual"
  input: "Adam/gradients/Crossentropy/Log_grad/mul"
  input: "Adam/gradients/Crossentropy/clip_by_value_grad/zeros"
  attr {
    key: "T"
    value {
      type: DT_FLOAT
    }
  }
}
node {
  name: "Adam/gradients/Crossentropy/clip_by_value_grad/LogicalNot"
  op: "LogicalNot"
  input: "Adam/gradients/Crossentropy/clip_by_value_grad/GreaterEqual"
}
node {
  name: "Adam/gradients/Crossentropy/clip_by_value_grad/Select_1"
  op: "Select"
  input: "Adam/gradients/Crossentropy/clip_by_value_grad/LogicalNot"
  input: "Adam/gradients/Crossentropy/Log_grad/mul"
  input: "Adam/gradients/Crossentropy/clip_by_value_grad/zeros"
  attr {
    key: "T"
    value {
      type: DT_FLOAT
    }
  }
}
node {
  name: "Adam/gradients/Crossentropy/clip_by_value_grad/Sum"
  op: "Sum"
  input: "Adam/gradients/Crossentropy/clip_by_value_grad/Select"
  input: "Adam/gradients/Crossentropy/clip_by_value_grad/BroadcastGradientArgs"
  attr {
    key: "T"
    value {
      type: DT_FLOAT
    }
  }
  attr {
    key: "Tidx"
    value {
      type: DT_INT32
    }
  }
  attr {
    key: "keep_dims"
    value {
      b: false
    }
  }
}
node {
  name: "Adam/gradients/Crossentropy/clip_by_value_grad/Reshape"
  op: "Reshape"
  input: "Adam/gradients/Crossentropy/clip_by_value_grad/Sum"
  input: "Adam/gradients/Crossentropy/clip_by_value_grad/Shape"
  attr {
    key: "T"
    value {
      type: DT_FLOAT
    }
  }
  attr {
    key: "Tshape"
    value {
      type: DT_INT32
    }
  }
}
node {
  name: "Adam/gradients/Crossentropy/clip_by_value_grad/Sum_1"
  op: "Sum"
  input: "Adam/gradients/Crossentropy/clip_by_value_grad/Select_1"
  input: "Adam/gradients/Crossentropy/clip_by_value_grad/BroadcastGradientArgs:1"
  attr {
    key: "T"
    value {
      type: DT_FLOAT
    }
  }
  attr {
    key: "Tidx"
    value {
      type: DT_INT32
    }
  }
  attr {
    key: "keep_dims"
    value {
      b: false
    }
  }
}
node {
  name: "Adam/gradients/Crossentropy/clip_by_value_grad/Reshape_1"
  op: "Reshape"
  input: "Adam/gradients/Crossentropy/clip_by_value_grad/Sum_1"
  input: "Adam/gradients/Crossentropy/clip_by_value_grad/Shape_1"
  attr {
    key: "T"
    value {
      type: DT_FLOAT
    }
  }
  attr {
    key: "Tshape"
    value {
      type: DT_INT32
    }
  }
}
node {
  name: "Adam/gradients/Crossentropy/clip_by_value/Minimum_grad/Shape"
  op: "Shape"
  input: "Crossentropy/truediv"
  input: "^Adam/moving_avg"
  input: "^moving_avg"
  attr {
    key: "T"
    value {
      type: DT_FLOAT
    }
  }
  attr {
    key: "out_type"
    value {
      type: DT_INT32
    }
  }
}
node {
  name: "Adam/gradients/Crossentropy/clip_by_value/Minimum_grad/Shape_1"
  op: "Const"
  input: "^Adam/moving_avg"
  input: "^moving_avg"
  attr {
    key: "dtype"
    value {
      type: DT_INT32
    }
  }
  attr {
    key: "value"
    value {
      tensor {
        dtype: DT_INT32
        tensor_shape {
          dim {
          }
        }
      }
    }
  }
}
node {
  name: "Adam/gradients/Crossentropy/clip_by_value/Minimum_grad/Shape_2"
  op: "Shape"
  input: "Adam/gradients/Crossentropy/clip_by_value_grad/Reshape"
  attr {
    key: "T"
    value {
      type: DT_FLOAT
    }
  }
  attr {
    key: "out_type"
    value {
      type: DT_INT32
    }
  }
}
node {
  name: "Adam/gradients/Crossentropy/clip_by_value/Minimum_grad/zeros/Const"
  op: "Const"
  input: "^Adam/moving_avg"
  input: "^moving_avg"
  attr {
    key: "dtype"
    value {
      type: DT_FLOAT
    }
  }
  attr {
    key: "value"
    value {
      tensor {
        dtype: DT_FLOAT
        tensor_shape {
        }
        float_val: 0.0
      }
    }
  }
}
node {
  name: "Adam/gradients/Crossentropy/clip_by_value/Minimum_grad/zeros"
  op: "Fill"
  input: "Adam/gradients/Crossentropy/clip_by_value/Minimum_grad/Shape_2"
  input: "Adam/gradients/Crossentropy/clip_by_value/Minimum_grad/zeros/Const"
  attr {
    key: "T"
    value {
      type: DT_FLOAT
    }
  }
}
node {
  name: "Adam/gradients/Crossentropy/clip_by_value/Minimum_grad/LessEqual"
  op: "LessEqual"
  input: "Crossentropy/truediv"
  input: "Crossentropy/Cast_1/x"
  input: "^Adam/moving_avg"
  input: "^moving_avg"
  attr {
    key: "T"
    value {
      type: DT_FLOAT
    }
  }
}
node {
  name: "Adam/gradients/Crossentropy/clip_by_value/Minimum_grad/BroadcastGradientArgs"
  op: "BroadcastGradientArgs"
  input: "Adam/gradients/Crossentropy/clip_by_value/Minimum_grad/Shape"
  input: "Adam/gradients/Crossentropy/clip_by_value/Minimum_grad/Shape_1"
  attr {
    key: "T"
    value {
      type: DT_INT32
    }
  }
}
node {
  name: "Adam/gradients/Crossentropy/clip_by_value/Minimum_grad/Select"
  op: "Select"
  input: "Adam/gradients/Crossentropy/clip_by_value/Minimum_grad/LessEqual"
  input: "Adam/gradients/Crossentropy/clip_by_value_grad/Reshape"
  input: "Adam/gradients/Crossentropy/clip_by_value/Minimum_grad/zeros"
  attr {
    key: "T"
    value {
      type: DT_FLOAT
    }
  }
}
node {
  name: "Adam/gradients/Crossentropy/clip_by_value/Minimum_grad/LogicalNot"
  op: "LogicalNot"
  input: "Adam/gradients/Crossentropy/clip_by_value/Minimum_grad/LessEqual"
}
node {
  name: "Adam/gradients/Crossentropy/clip_by_value/Minimum_grad/Select_1"
  op: "Select"
  input: "Adam/gradients/Crossentropy/clip_by_value/Minimum_grad/LogicalNot"
  input: "Adam/gradients/Crossentropy/clip_by_value_grad/Reshape"
  input: "Adam/gradients/Crossentropy/clip_by_value/Minimum_grad/zeros"
  attr {
    key: "T"
    value {
      type: DT_FLOAT
    }
  }
}
node {
  name: "Adam/gradients/Crossentropy/clip_by_value/Minimum_grad/Sum"
  op: "Sum"
  input: "Adam/gradients/Crossentropy/clip_by_value/Minimum_grad/Select"
  input: "Adam/gradients/Crossentropy/clip_by_value/Minimum_grad/BroadcastGradientArgs"
  attr {
    key: "T"
    value {
      type: DT_FLOAT
    }
  }
  attr {
    key: "Tidx"
    value {
      type: DT_INT32
    }
  }
  attr {
    key: "keep_dims"
    value {
      b: false
    }
  }
}
node {
  name: "Adam/gradients/Crossentropy/clip_by_value/Minimum_grad/Reshape"
  op: "Reshape"
  input: "Adam/gradients/Crossentropy/clip_by_value/Minimum_grad/Sum"
  input: "Adam/gradients/Crossentropy/clip_by_value/Minimum_grad/Shape"
  attr {
    key: "T"
    value {
      type: DT_FLOAT
    }
  }
  attr {
    key: "Tshape"
    value {
      type: DT_INT32
    }
  }
}
node {
  name: "Adam/gradients/Crossentropy/clip_by_value/Minimum_grad/Sum_1"
  op: "Sum"
  input: "Adam/gradients/Crossentropy/clip_by_value/Minimum_grad/Select_1"
  input: "Adam/gradients/Crossentropy/clip_by_value/Minimum_grad/BroadcastGradientArgs:1"
  attr {
    key: "T"
    value {
      type: DT_FLOAT
    }
  }
  attr {
    key: "Tidx"
    value {
      type: DT_INT32
    }
  }
  attr {
    key: "keep_dims"
    value {
      b: false
    }
  }
}
node {
  name: "Adam/gradients/Crossentropy/clip_by_value/Minimum_grad/Reshape_1"
  op: "Reshape"
  input: "Adam/gradients/Crossentropy/clip_by_value/Minimum_grad/Sum_1"
  input: "Adam/gradients/Crossentropy/clip_by_value/Minimum_grad/Shape_1"
  attr {
    key: "T"
    value {
      type: DT_FLOAT
    }
  }
  attr {
    key: "Tshape"
    value {
      type: DT_INT32
    }
  }
}
node {
  name: "Adam/gradients/Crossentropy/truediv_grad/Shape"
  op: "Shape"
  input: "output/Softmax"
  input: "^Adam/moving_avg"
  input: "^moving_avg"
  attr {
    key: "T"
    value {
      type: DT_FLOAT
    }
  }
  attr {
    key: "out_type"
    value {
      type: DT_INT32
    }
  }
}
node {
  name: "Adam/gradients/Crossentropy/truediv_grad/Shape_1"
  op: "Shape"
  input: "Crossentropy/Sum"
  input: "^Adam/moving_avg"
  input: "^moving_avg"
  attr {
    key: "T"
    value {
      type: DT_FLOAT
    }
  }
  attr {
    key: "out_type"
    value {
      type: DT_INT32
    }
  }
}
node {
  name: "Adam/gradients/Crossentropy/truediv_grad/BroadcastGradientArgs"
  op: "BroadcastGradientArgs"
  input: "Adam/gradients/Crossentropy/truediv_grad/Shape"
  input: "Adam/gradients/Crossentropy/truediv_grad/Shape_1"
  attr {
    key: "T"
    value {
      type: DT_INT32
    }
  }
}
node {
  name: "Adam/gradients/Crossentropy/truediv_grad/RealDiv"
  op: "RealDiv"
  input: "Adam/gradients/Crossentropy/clip_by_value/Minimum_grad/Reshape"
  input: "Crossentropy/Sum"
  attr {
    key: "T"
    value {
      type: DT_FLOAT
    }
  }
}
node {
  name: "Adam/gradients/Crossentropy/truediv_grad/Sum"
  op: "Sum"
  input: "Adam/gradients/Crossentropy/truediv_grad/RealDiv"
  input: "Adam/gradients/Crossentropy/truediv_grad/BroadcastGradientArgs"
  attr {
    key: "T"
    value {
      type: DT_FLOAT
    }
  }
  attr {
    key: "Tidx"
    value {
      type: DT_INT32
    }
  }
  attr {
    key: "keep_dims"
    value {
      b: false
    }
  }
}
node {
  name: "Adam/gradients/Crossentropy/truediv_grad/Reshape"
  op: "Reshape"
  input: "Adam/gradients/Crossentropy/truediv_grad/Sum"
  input: "Adam/gradients/Crossentropy/truediv_grad/Shape"
  attr {
    key: "T"
    value {
      type: DT_FLOAT
    }
  }
  attr {
    key: "Tshape"
    value {
      type: DT_INT32
    }
  }
}
node {
  name: "Adam/gradients/Crossentropy/truediv_grad/Neg"
  op: "Neg"
  input: "output/Softmax"
  input: "^Adam/moving_avg"
  input: "^moving_avg"
  attr {
    key: "T"
    value {
      type: DT_FLOAT
    }
  }
}
node {
  name: "Adam/gradients/Crossentropy/truediv_grad/RealDiv_1"
  op: "RealDiv"
  input: "Adam/gradients/Crossentropy/truediv_grad/Neg"
  input: "Crossentropy/Sum"
  attr {
    key: "T"
    value {
      type: DT_FLOAT
    }
  }
}
node {
  name: "Adam/gradients/Crossentropy/truediv_grad/RealDiv_2"
  op: "RealDiv"
  input: "Adam/gradients/Crossentropy/truediv_grad/RealDiv_1"
  input: "Crossentropy/Sum"
  attr {
    key: "T"
    value {
      type: DT_FLOAT
    }
  }
}
node {
  name: "Adam/gradients/Crossentropy/truediv_grad/mul"
  op: "Mul"
  input: "Adam/gradients/Crossentropy/clip_by_value/Minimum_grad/Reshape"
  input: "Adam/gradients/Crossentropy/truediv_grad/RealDiv_2"
  attr {
    key: "T"
    value {
      type: DT_FLOAT
    }
  }
}
node {
  name: "Adam/gradients/Crossentropy/truediv_grad/Sum_1"
  op: "Sum"
  input: "Adam/gradients/Crossentropy/truediv_grad/mul"
  input: "Adam/gradients/Crossentropy/truediv_grad/BroadcastGradientArgs:1"
  attr {
    key: "T"
    value {
      type: DT_FLOAT
    }
  }
  attr {
    key: "Tidx"
    value {
      type: DT_INT32
    }
  }
  attr {
    key: "keep_dims"
    value {
      b: false
    }
  }
}
node {
  name: "Adam/gradients/Crossentropy/truediv_grad/Reshape_1"
  op: "Reshape"
  input: "Adam/gradients/Crossentropy/truediv_grad/Sum_1"
  input: "Adam/gradients/Crossentropy/truediv_grad/Shape_1"
  attr {
    key: "T"
    value {
      type: DT_FLOAT
    }
  }
  attr {
    key: "Tshape"
    value {
      type: DT_INT32
    }
  }
}
node {
  name: "Adam/gradients/Crossentropy/Sum_grad/Shape"
  op: "Shape"
  input: "output/Softmax"
  input: "^Adam/moving_avg"
  input: "^moving_avg"
  attr {
    key: "T"
    value {
      type: DT_FLOAT
    }
  }
  attr {
    key: "out_type"
    value {
      type: DT_INT32
    }
  }
}
node {
  name: "Adam/gradients/Crossentropy/Sum_grad/Size"
  op: "Const"
  input: "^Adam/moving_avg"
  input: "^moving_avg"
  attr {
    key: "dtype"
    value {
      type: DT_INT32
    }
  }
  attr {
    key: "value"
    value {
      tensor {
        dtype: DT_INT32
        tensor_shape {
        }
        int_val: 2
      }
    }
  }
}
node {
  name: "Adam/gradients/Crossentropy/Sum_grad/add"
  op: "Add"
  input: "Crossentropy/Sum/reduction_indices"
  input: "Adam/gradients/Crossentropy/Sum_grad/Size"
  attr {
    key: "T"
    value {
      type: DT_INT32
    }
  }
}
node {
  name: "Adam/gradients/Crossentropy/Sum_grad/mod"
  op: "FloorMod"
  input: "Adam/gradients/Crossentropy/Sum_grad/add"
  input: "Adam/gradients/Crossentropy/Sum_grad/Size"
  attr {
    key: "T"
    value {
      type: DT_INT32
    }
  }
}
node {
  name: "Adam/gradients/Crossentropy/Sum_grad/Shape_1"
  op: "Const"
  input: "^Adam/moving_avg"
  input: "^moving_avg"
  attr {
    key: "dtype"
    value {
      type: DT_INT32
    }
  }
  attr {
    key: "value"
    value {
      tensor {
        dtype: DT_INT32
        tensor_shape {
          dim {
          }
        }
      }
    }
  }
}
node {
  name: "Adam/gradients/Crossentropy/Sum_grad/range/start"
  op: "Const"
  input: "^Adam/moving_avg"
  input: "^moving_avg"
  attr {
    key: "dtype"
    value {
      type: DT_INT32
    }
  }
  attr {
    key: "value"
    value {
      tensor {
        dtype: DT_INT32
        tensor_shape {
        }
        int_val: 0
      }
    }
  }
}
node {
  name: "Adam/gradients/Crossentropy/Sum_grad/range/delta"
  op: "Const"
  input: "^Adam/moving_avg"
  input: "^moving_avg"
  attr {
    key: "dtype"
    value {
      type: DT_INT32
    }
  }
  attr {
    key: "value"
    value {
      tensor {
        dtype: DT_INT32
        tensor_shape {
        }
        int_val: 1
      }
    }
  }
}
node {
  name: "Adam/gradients/Crossentropy/Sum_grad/range"
  op: "Range"
  input: "Adam/gradients/Crossentropy/Sum_grad/range/start"
  input: "Adam/gradients/Crossentropy/Sum_grad/Size"
  input: "Adam/gradients/Crossentropy/Sum_grad/range/delta"
  attr {
    key: "Tidx"
    value {
      type: DT_INT32
    }
  }
}
node {
  name: "Adam/gradients/Crossentropy/Sum_grad/Fill/value"
  op: "Const"
  input: "^Adam/moving_avg"
  input: "^moving_avg"
  attr {
    key: "dtype"
    value {
      type: DT_INT32
    }
  }
  attr {
    key: "value"
    value {
      tensor {
        dtype: DT_INT32
        tensor_shape {
        }
        int_val: 1
      }
    }
  }
}
node {
  name: "Adam/gradients/Crossentropy/Sum_grad/Fill"
  op: "Fill"
  input: "Adam/gradients/Crossentropy/Sum_grad/Shape_1"
  input: "Adam/gradients/Crossentropy/Sum_grad/Fill/value"
  attr {
    key: "T"
    value {
      type: DT_INT32
    }
  }
}
node {
  name: "Adam/gradients/Crossentropy/Sum_grad/DynamicStitch"
  op: "DynamicStitch"
  input: "Adam/gradients/Crossentropy/Sum_grad/range"
  input: "Adam/gradients/Crossentropy/Sum_grad/mod"
  input: "Adam/gradients/Crossentropy/Sum_grad/Shape"
  input: "Adam/gradients/Crossentropy/Sum_grad/Fill"
  attr {
    key: "N"
    value {
      i: 2
    }
  }
  attr {
    key: "T"
    value {
      type: DT_INT32
    }
  }
}
node {
  name: "Adam/gradients/Crossentropy/Sum_grad/Maximum/y"
  op: "Const"
  input: "^Adam/moving_avg"
  input: "^moving_avg"
  attr {
    key: "dtype"
    value {
      type: DT_INT32
    }
  }
  attr {
    key: "value"
    value {
      tensor {
        dtype: DT_INT32
        tensor_shape {
        }
        int_val: 1
      }
    }
  }
}
node {
  name: "Adam/gradients/Crossentropy/Sum_grad/Maximum"
  op: "Maximum"
  input: "Adam/gradients/Crossentropy/Sum_grad/DynamicStitch"
  input: "Adam/gradients/Crossentropy/Sum_grad/Maximum/y"
  attr {
    key: "T"
    value {
      type: DT_INT32
    }
  }
}
node {
  name: "Adam/gradients/Crossentropy/Sum_grad/floordiv"
  op: "FloorDiv"
  input: "Adam/gradients/Crossentropy/Sum_grad/Shape"
  input: "Adam/gradients/Crossentropy/Sum_grad/Maximum"
  attr {
    key: "T"
    value {
      type: DT_INT32
    }
  }
}
node {
  name: "Adam/gradients/Crossentropy/Sum_grad/Reshape"
  op: "Reshape"
  input: "Adam/gradients/Crossentropy/truediv_grad/Reshape_1"
  input: "Adam/gradients/Crossentropy/Sum_grad/DynamicStitch"
  attr {
    key: "T"
    value {
      type: DT_FLOAT
    }
  }
  attr {
    key: "Tshape"
    value {
      type: DT_INT32
    }
  }
}
node {
  name: "Adam/gradients/Crossentropy/Sum_grad/Tile"
  op: "Tile"
  input: "Adam/gradients/Crossentropy/Sum_grad/Reshape"
  input: "Adam/gradients/Crossentropy/Sum_grad/floordiv"
  attr {
    key: "T"
    value {
      type: DT_FLOAT
    }
  }
  attr {
    key: "Tmultiples"
    value {
      type: DT_INT32
    }
  }
}
node {
  name: "Adam/gradients/AddN"
  op: "AddN"
  input: "Adam/gradients/Crossentropy/truediv_grad/Reshape"
  input: "Adam/gradients/Crossentropy/Sum_grad/Tile"
  attr {
    key: "N"
    value {
      i: 2
    }
  }
  attr {
    key: "T"
    value {
      type: DT_FLOAT
    }
  }
  attr {
    key: "_class"
    value {
      list {
        s: "loc:@Adam/gradients/Crossentropy/truediv_grad/Reshape"
      }
    }
  }
}
node {
  name: "Adam/gradients/output/Softmax_grad/mul"
  op: "Mul"
  input: "Adam/gradients/AddN"
  input: "output/Softmax"
  attr {
    key: "T"
    value {
      type: DT_FLOAT
    }
  }
}
node {
  name: "Adam/gradients/output/Softmax_grad/Sum/reduction_indices"
  op: "Const"
  input: "^Adam/moving_avg"
  input: "^moving_avg"
  attr {
    key: "dtype"
    value {
      type: DT_INT32
    }
  }
  attr {
    key: "value"
    value {
      tensor {
        dtype: DT_INT32
        tensor_shape {
          dim {
            size: 1
          }
        }
        int_val: 1
      }
    }
  }
}
node {
  name: "Adam/gradients/output/Softmax_grad/Sum"
  op: "Sum"
  input: "Adam/gradients/output/Softmax_grad/mul"
  input: "Adam/gradients/output/Softmax_grad/Sum/reduction_indices"
  attr {
    key: "T"
    value {
      type: DT_FLOAT
    }
  }
  attr {
    key: "Tidx"
    value {
      type: DT_INT32
    }
  }
  attr {
    key: "keep_dims"
    value {
      b: false
    }
  }
}
node {
  name: "Adam/gradients/output/Softmax_grad/Reshape/shape"
  op: "Const"
  input: "^Adam/moving_avg"
  input: "^moving_avg"
  attr {
    key: "dtype"
    value {
      type: DT_INT32
    }
  }
  attr {
    key: "value"
    value {
      tensor {
        dtype: DT_INT32
        tensor_shape {
          dim {
            size: 2
          }
        }
        tensor_content: "\377\377\377\377\001\000\000\000"
      }
    }
  }
}
node {
  name: "Adam/gradients/output/Softmax_grad/Reshape"
  op: "Reshape"
  input: "Adam/gradients/output/Softmax_grad/Sum"
  input: "Adam/gradients/output/Softmax_grad/Reshape/shape"
  attr {
    key: "T"
    value {
      type: DT_FLOAT
    }
  }
  attr {
    key: "Tshape"
    value {
      type: DT_INT32
    }
  }
}
node {
  name: "Adam/gradients/output/Softmax_grad/sub"
  op: "Sub"
  input: "Adam/gradients/AddN"
  input: "Adam/gradients/output/Softmax_grad/Reshape"
  attr {
    key: "T"
    value {
      type: DT_FLOAT
    }
  }
}
node {
  name: "Adam/gradients/output/Softmax_grad/mul_1"
  op: "Mul"
  input: "Adam/gradients/output/Softmax_grad/sub"
  input: "output/Softmax"
  attr {
    key: "T"
    value {
      type: DT_FLOAT
    }
  }
}
node {
  name: "Adam/gradients/output/BiasAdd_grad/BiasAddGrad"
  op: "BiasAddGrad"
  input: "Adam/gradients/output/Softmax_grad/mul_1"
  attr {
    key: "T"
    value {
      type: DT_FLOAT
    }
  }
  attr {
    key: "data_format"
    value {
      s: "NHWC"
    }
  }
}
node {
  name: "Adam/gradients/output/MatMul_grad/MatMul"
  op: "MatMul"
  input: "Adam/gradients/output/Softmax_grad/mul_1"
  input: "output/W/read"
  attr {
    key: "T"
    value {
      type: DT_FLOAT
    }
  }
  attr {
    key: "transpose_a"
    value {
      b: false
    }
  }
  attr {
    key: "transpose_b"
    value {
      b: true
    }
  }
}
node {
  name: "Adam/gradients/output/MatMul_grad/MatMul_1"
  op: "MatMul"
  input: "FullyConnected/Relu"
  input: "Adam/gradients/output/Softmax_grad/mul_1"
  attr {
    key: "T"
    value {
      type: DT_FLOAT
    }
  }
  attr {
    key: "transpose_a"
    value {
      b: true
    }
  }
  attr {
    key: "transpose_b"
    value {
      b: false
    }
  }
}
node {
  name: "Adam/gradients/FullyConnected/Relu_grad/ReluGrad"
  op: "ReluGrad"
  input: "Adam/gradients/output/MatMul_grad/MatMul"
  input: "FullyConnected/Relu"
  attr {
    key: "T"
    value {
      type: DT_FLOAT
    }
  }
}
node {
  name: "Adam/gradients/FullyConnected/BiasAdd_grad/BiasAddGrad"
  op: "BiasAddGrad"
  input: "Adam/gradients/FullyConnected/Relu_grad/ReluGrad"
  attr {
    key: "T"
    value {
      type: DT_FLOAT
    }
  }
  attr {
    key: "data_format"
    value {
      s: "NHWC"
    }
  }
}
node {
  name: "Adam/gradients/FullyConnected/MatMul_grad/MatMul"
  op: "MatMul"
  input: "Adam/gradients/FullyConnected/Relu_grad/ReluGrad"
  input: "FullyConnected/W/read"
  attr {
    key: "T"
    value {
      type: DT_FLOAT
    }
  }
  attr {
    key: "transpose_a"
    value {
      b: false
    }
  }
  attr {
    key: "transpose_b"
    value {
      b: true
    }
  }
}
node {
  name: "Adam/gradients/FullyConnected/MatMul_grad/MatMul_1"
  op: "MatMul"
  input: "FullyConnected/Reshape"
  input: "Adam/gradients/FullyConnected/Relu_grad/ReluGrad"
  attr {
    key: "T"
    value {
      type: DT_FLOAT
    }
  }
  attr {
    key: "transpose_a"
    value {
      b: true
    }
  }
  attr {
    key: "transpose_b"
    value {
      b: false
    }
  }
}
node {
  name: "Adam/gradients/FullyConnected/Reshape_grad/Shape"
  op: "Shape"
  input: "MaxPool2D_5/MaxPool"
  input: "^Adam/moving_avg"
  input: "^moving_avg"
  attr {
    key: "T"
    value {
      type: DT_FLOAT
    }
  }
  attr {
    key: "out_type"
    value {
      type: DT_INT32
    }
  }
}
node {
  name: "Adam/gradients/FullyConnected/Reshape_grad/Reshape"
  op: "Reshape"
  input: "Adam/gradients/FullyConnected/MatMul_grad/MatMul"
  input: "Adam/gradients/FullyConnected/Reshape_grad/Shape"
  attr {
    key: "T"
    value {
      type: DT_FLOAT
    }
  }
  attr {
    key: "Tshape"
    value {
      type: DT_INT32
    }
  }
}
node {
  name: "Adam/gradients/MaxPool2D_5/MaxPool_grad/MaxPoolGrad"
  op: "MaxPoolGrad"
  input: "Conv2D_5/Relu"
  input: "MaxPool2D_5/MaxPool"
  input: "Adam/gradients/FullyConnected/Reshape_grad/Reshape"
  attr {
    key: "T"
    value {
      type: DT_FLOAT
    }
  }
  attr {
    key: "data_format"
    value {
      s: "NHWC"
    }
  }
  attr {
    key: "ksize"
    value {
      list {
        i: 1
        i: 2
        i: 2
        i: 1
      }
    }
  }
  attr {
    key: "padding"
    value {
      s: "SAME"
    }
  }
  attr {
    key: "strides"
    value {
      list {
        i: 1
        i: 2
        i: 2
        i: 1
      }
    }
  }
}
node {
  name: "Adam/gradients/Conv2D_5/Relu_grad/ReluGrad"
  op: "ReluGrad"
  input: "Adam/gradients/MaxPool2D_5/MaxPool_grad/MaxPoolGrad"
  input: "Conv2D_5/Relu"
  attr {
    key: "T"
    value {
      type: DT_FLOAT
    }
  }
}
node {
  name: "Adam/gradients/Conv2D_5/BiasAdd_grad/BiasAddGrad"
  op: "BiasAddGrad"
  input: "Adam/gradients/Conv2D_5/Relu_grad/ReluGrad"
  attr {
    key: "T"
    value {
      type: DT_FLOAT
    }
  }
  attr {
    key: "data_format"
    value {
      s: "NHWC"
    }
  }
}
node {
  name: "Adam/gradients/Conv2D_5/Conv2D_grad/Shape"
  op: "Shape"
  input: "MaxPool2D_4/MaxPool"
  input: "^Adam/moving_avg"
  input: "^moving_avg"
  attr {
    key: "T"
    value {
      type: DT_FLOAT
    }
  }
  attr {
    key: "out_type"
    value {
      type: DT_INT32
    }
  }
}
node {
  name: "Adam/gradients/Conv2D_5/Conv2D_grad/Conv2DBackpropInput"
  op: "Conv2DBackpropInput"
  input: "Adam/gradients/Conv2D_5/Conv2D_grad/Shape"
  input: "Conv2D_5/W/read"
  input: "Adam/gradients/Conv2D_5/Relu_grad/ReluGrad"
  attr {
    key: "T"
    value {
      type: DT_FLOAT
    }
  }
  attr {
    key: "data_format"
    value {
      s: "NHWC"
    }
  }
  attr {
    key: "padding"
    value {
      s: "SAME"
    }
  }
  attr {
    key: "strides"
    value {
      list {
        i: 1
        i: 1
        i: 1
        i: 1
      }
    }
  }
  attr {
    key: "use_cudnn_on_gpu"
    value {
      b: true
    }
  }
}
node {
  name: "Adam/gradients/Conv2D_5/Conv2D_grad/Shape_1"
  op: "Const"
  input: "^Adam/moving_avg"
  input: "^moving_avg"
  attr {
    key: "dtype"
    value {
      type: DT_INT32
    }
  }
  attr {
    key: "value"
    value {
      tensor {
        dtype: DT_INT32
        tensor_shape {
          dim {
            size: 4
          }
        }
        tensor_content: "\002\000\000\000\002\000\000\000 \000\000\000@\000\000\000"
      }
    }
  }
}
node {
  name: "Adam/gradients/Conv2D_5/Conv2D_grad/Conv2DBackpropFilter"
  op: "Conv2DBackpropFilter"
  input: "MaxPool2D_4/MaxPool"
  input: "Adam/gradients/Conv2D_5/Conv2D_grad/Shape_1"
  input: "Adam/gradients/Conv2D_5/Relu_grad/ReluGrad"
  attr {
    key: "T"
    value {
      type: DT_FLOAT
    }
  }
  attr {
    key: "data_format"
    value {
      s: "NHWC"
    }
  }
  attr {
    key: "padding"
    value {
      s: "SAME"
    }
  }
  attr {
    key: "strides"
    value {
      list {
        i: 1
        i: 1
        i: 1
        i: 1
      }
    }
  }
  attr {
    key: "use_cudnn_on_gpu"
    value {
      b: true
    }
  }
}
node {
  name: "Adam/gradients/MaxPool2D_4/MaxPool_grad/MaxPoolGrad"
  op: "MaxPoolGrad"
  input: "Conv2D_4/Relu"
  input: "MaxPool2D_4/MaxPool"
  input: "Adam/gradients/Conv2D_5/Conv2D_grad/Conv2DBackpropInput"
  attr {
    key: "T"
    value {
      type: DT_FLOAT
    }
  }
  attr {
    key: "data_format"
    value {
      s: "NHWC"
    }
  }
  attr {
    key: "ksize"
    value {
      list {
        i: 1
        i: 2
        i: 2
        i: 1
      }
    }
  }
  attr {
    key: "padding"
    value {
      s: "SAME"
    }
  }
  attr {
    key: "strides"
    value {
      list {
        i: 1
        i: 2
        i: 2
        i: 1
      }
    }
  }
}
node {
  name: "Adam/gradients/Conv2D_4/Relu_grad/ReluGrad"
  op: "ReluGrad"
  input: "Adam/gradients/MaxPool2D_4/MaxPool_grad/MaxPoolGrad"
  input: "Conv2D_4/Relu"
  attr {
    key: "T"
    value {
      type: DT_FLOAT
    }
  }
}
node {
  name: "Adam/gradients/Conv2D_4/BiasAdd_grad/BiasAddGrad"
  op: "BiasAddGrad"
  input: "Adam/gradients/Conv2D_4/Relu_grad/ReluGrad"
  attr {
    key: "T"
    value {
      type: DT_FLOAT
    }
  }
  attr {
    key: "data_format"
    value {
      s: "NHWC"
    }
  }
}
node {
  name: "Adam/gradients/Conv2D_4/Conv2D_grad/Shape"
  op: "Shape"
  input: "MaxPool2D_3/MaxPool"
  input: "^Adam/moving_avg"
  input: "^moving_avg"
  attr {
    key: "T"
    value {
      type: DT_FLOAT
    }
  }
  attr {
    key: "out_type"
    value {
      type: DT_INT32
    }
  }
}
node {
  name: "Adam/gradients/Conv2D_4/Conv2D_grad/Conv2DBackpropInput"
  op: "Conv2DBackpropInput"
  input: "Adam/gradients/Conv2D_4/Conv2D_grad/Shape"
  input: "Conv2D_4/W/read"
  input: "Adam/gradients/Conv2D_4/Relu_grad/ReluGrad"
  attr {
    key: "T"
    value {
      type: DT_FLOAT
    }
  }
  attr {
    key: "data_format"
    value {
      s: "NHWC"
    }
  }
  attr {
    key: "padding"
    value {
      s: "SAME"
    }
  }
  attr {
    key: "strides"
    value {
      list {
        i: 1
        i: 1
        i: 1
        i: 1
      }
    }
  }
  attr {
    key: "use_cudnn_on_gpu"
    value {
      b: true
    }
  }
}
node {
  name: "Adam/gradients/Conv2D_4/Conv2D_grad/Shape_1"
  op: "Const"
  input: "^Adam/moving_avg"
  input: "^moving_avg"
  attr {
    key: "dtype"
    value {
      type: DT_INT32
    }
  }
  attr {
    key: "value"
    value {
      tensor {
        dtype: DT_INT32
        tensor_shape {
          dim {
            size: 4
          }
        }
        tensor_content: "\002\000\000\000\002\000\000\000@\000\000\000 \000\000\000"
      }
    }
  }
}
node {
  name: "Adam/gradients/Conv2D_4/Conv2D_grad/Conv2DBackpropFilter"
  op: "Conv2DBackpropFilter"
  input: "MaxPool2D_3/MaxPool"
  input: "Adam/gradients/Conv2D_4/Conv2D_grad/Shape_1"
  input: "Adam/gradients/Conv2D_4/Relu_grad/ReluGrad"
  attr {
    key: "T"
    value {
      type: DT_FLOAT
    }
  }
  attr {
    key: "data_format"
    value {
      s: "NHWC"
    }
  }
  attr {
    key: "padding"
    value {
      s: "SAME"
    }
  }
  attr {
    key: "strides"
    value {
      list {
        i: 1
        i: 1
        i: 1
        i: 1
      }
    }
  }
  attr {
    key: "use_cudnn_on_gpu"
    value {
      b: true
    }
  }
}
node {
  name: "Adam/gradients/MaxPool2D_3/MaxPool_grad/MaxPoolGrad"
  op: "MaxPoolGrad"
  input: "Conv2D_3/Relu"
  input: "MaxPool2D_3/MaxPool"
  input: "Adam/gradients/Conv2D_4/Conv2D_grad/Conv2DBackpropInput"
  attr {
    key: "T"
    value {
      type: DT_FLOAT
    }
  }
  attr {
    key: "data_format"
    value {
      s: "NHWC"
    }
  }
  attr {
    key: "ksize"
    value {
      list {
        i: 1
        i: 2
        i: 2
        i: 1
      }
    }
  }
  attr {
    key: "padding"
    value {
      s: "SAME"
    }
  }
  attr {
    key: "strides"
    value {
      list {
        i: 1
        i: 2
        i: 2
        i: 1
      }
    }
  }
}
node {
  name: "Adam/gradients/Conv2D_3/Relu_grad/ReluGrad"
  op: "ReluGrad"
  input: "Adam/gradients/MaxPool2D_3/MaxPool_grad/MaxPoolGrad"
  input: "Conv2D_3/Relu"
  attr {
    key: "T"
    value {
      type: DT_FLOAT
    }
  }
}
node {
  name: "Adam/gradients/Conv2D_3/BiasAdd_grad/BiasAddGrad"
  op: "BiasAddGrad"
  input: "Adam/gradients/Conv2D_3/Relu_grad/ReluGrad"
  attr {
    key: "T"
    value {
      type: DT_FLOAT
    }
  }
  attr {
    key: "data_format"
    value {
      s: "NHWC"
    }
  }
}
node {
  name: "Adam/gradients/Conv2D_3/Conv2D_grad/Shape"
  op: "Shape"
  input: "MaxPool2D_2/MaxPool"
  input: "^Adam/moving_avg"
  input: "^moving_avg"
  attr {
    key: "T"
    value {
      type: DT_FLOAT
    }
  }
  attr {
    key: "out_type"
    value {
      type: DT_INT32
    }
  }
}
node {
  name: "Adam/gradients/Conv2D_3/Conv2D_grad/Conv2DBackpropInput"
  op: "Conv2DBackpropInput"
  input: "Adam/gradients/Conv2D_3/Conv2D_grad/Shape"
  input: "Conv2D_3/W/read"
  input: "Adam/gradients/Conv2D_3/Relu_grad/ReluGrad"
  attr {
    key: "T"
    value {
      type: DT_FLOAT
    }
  }
  attr {
    key: "data_format"
    value {
      s: "NHWC"
    }
  }
  attr {
    key: "padding"
    value {
      s: "SAME"
    }
  }
  attr {
    key: "strides"
    value {
      list {
        i: 1
        i: 1
        i: 1
        i: 1
      }
    }
  }
  attr {
    key: "use_cudnn_on_gpu"
    value {
      b: true
    }
  }
}
node {
  name: "Adam/gradients/Conv2D_3/Conv2D_grad/Shape_1"
  op: "Const"
  input: "^Adam/moving_avg"
  input: "^moving_avg"
  attr {
    key: "dtype"
    value {
      type: DT_INT32
    }
  }
  attr {
    key: "value"
    value {
      tensor {
        dtype: DT_INT32
        tensor_shape {
          dim {
            size: 4
          }
        }
        tensor_content: "\002\000\000\000\002\000\000\000 \000\000\000@\000\000\000"
      }
    }
  }
}
node {
  name: "Adam/gradients/Conv2D_3/Conv2D_grad/Conv2DBackpropFilter"
  op: "Conv2DBackpropFilter"
  input: "MaxPool2D_2/MaxPool"
  input: "Adam/gradients/Conv2D_3/Conv2D_grad/Shape_1"
  input: "Adam/gradients/Conv2D_3/Relu_grad/ReluGrad"
  attr {
    key: "T"
    value {
      type: DT_FLOAT
    }
  }
  attr {
    key: "data_format"
    value {
      s: "NHWC"
    }
  }
  attr {
    key: "padding"
    value {
      s: "SAME"
    }
  }
  attr {
    key: "strides"
    value {
      list {
        i: 1
        i: 1
        i: 1
        i: 1
      }
    }
  }
  attr {
    key: "use_cudnn_on_gpu"
    value {
      b: true
    }
  }
}
node {
  name: "Adam/gradients/MaxPool2D_2/MaxPool_grad/MaxPoolGrad"
  op: "MaxPoolGrad"
  input: "Conv2D_2/Relu"
  input: "MaxPool2D_2/MaxPool"
  input: "Adam/gradients/Conv2D_3/Conv2D_grad/Conv2DBackpropInput"
  attr {
    key: "T"
    value {
      type: DT_FLOAT
    }
  }
  attr {
    key: "data_format"
    value {
      s: "NHWC"
    }
  }
  attr {
    key: "ksize"
    value {
      list {
        i: 1
        i: 2
        i: 2
        i: 1
      }
    }
  }
  attr {
    key: "padding"
    value {
      s: "SAME"
    }
  }
  attr {
    key: "strides"
    value {
      list {
        i: 1
        i: 2
        i: 2
        i: 1
      }
    }
  }
}
node {
  name: "Adam/gradients/Conv2D_2/Relu_grad/ReluGrad"
  op: "ReluGrad"
  input: "Adam/gradients/MaxPool2D_2/MaxPool_grad/MaxPoolGrad"
  input: "Conv2D_2/Relu"
  attr {
    key: "T"
    value {
      type: DT_FLOAT
    }
  }
}
node {
  name: "Adam/gradients/Conv2D_2/BiasAdd_grad/BiasAddGrad"
  op: "BiasAddGrad"
  input: "Adam/gradients/Conv2D_2/Relu_grad/ReluGrad"
  attr {
    key: "T"
    value {
      type: DT_FLOAT
    }
  }
  attr {
    key: "data_format"
    value {
      s: "NHWC"
    }
  }
}
node {
  name: "Adam/gradients/Conv2D_2/Conv2D_grad/Shape"
  op: "Shape"
  input: "MaxPool2D_1/MaxPool"
  input: "^Adam/moving_avg"
  input: "^moving_avg"
  attr {
    key: "T"
    value {
      type: DT_FLOAT
    }
  }
  attr {
    key: "out_type"
    value {
      type: DT_INT32
    }
  }
}
node {
  name: "Adam/gradients/Conv2D_2/Conv2D_grad/Conv2DBackpropInput"
  op: "Conv2DBackpropInput"
  input: "Adam/gradients/Conv2D_2/Conv2D_grad/Shape"
  input: "Conv2D_2/W/read"
  input: "Adam/gradients/Conv2D_2/Relu_grad/ReluGrad"
  attr {
    key: "T"
    value {
      type: DT_FLOAT
    }
  }
  attr {
    key: "data_format"
    value {
      s: "NHWC"
    }
  }
  attr {
    key: "padding"
    value {
      s: "SAME"
    }
  }
  attr {
    key: "strides"
    value {
      list {
        i: 1
        i: 1
        i: 1
        i: 1
      }
    }
  }
  attr {
    key: "use_cudnn_on_gpu"
    value {
      b: true
    }
  }
}
node {
  name: "Adam/gradients/Conv2D_2/Conv2D_grad/Shape_1"
  op: "Const"
  input: "^Adam/moving_avg"
  input: "^moving_avg"
  attr {
    key: "dtype"
    value {
      type: DT_INT32
    }
  }
  attr {
    key: "value"
    value {
      tensor {
        dtype: DT_INT32
        tensor_shape {
          dim {
            size: 4
          }
        }
        tensor_content: "\002\000\000\000\002\000\000\000@\000\000\000 \000\000\000"
      }
    }
  }
}
node {
  name: "Adam/gradients/Conv2D_2/Conv2D_grad/Conv2DBackpropFilter"
  op: "Conv2DBackpropFilter"
  input: "MaxPool2D_1/MaxPool"
  input: "Adam/gradients/Conv2D_2/Conv2D_grad/Shape_1"
  input: "Adam/gradients/Conv2D_2/Relu_grad/ReluGrad"
  attr {
    key: "T"
    value {
      type: DT_FLOAT
    }
  }
  attr {
    key: "data_format"
    value {
      s: "NHWC"
    }
  }
  attr {
    key: "padding"
    value {
      s: "SAME"
    }
  }
  attr {
    key: "strides"
    value {
      list {
        i: 1
        i: 1
        i: 1
        i: 1
      }
    }
  }
  attr {
    key: "use_cudnn_on_gpu"
    value {
      b: true
    }
  }
}
node {
  name: "Adam/gradients/MaxPool2D_1/MaxPool_grad/MaxPoolGrad"
  op: "MaxPoolGrad"
  input: "Conv2D_1/Relu"
  input: "MaxPool2D_1/MaxPool"
  input: "Adam/gradients/Conv2D_2/Conv2D_grad/Conv2DBackpropInput"
  attr {
    key: "T"
    value {
      type: DT_FLOAT
    }
  }
  attr {
    key: "data_format"
    value {
      s: "NHWC"
    }
  }
  attr {
    key: "ksize"
    value {
      list {
        i: 1
        i: 2
        i: 2
        i: 1
      }
    }
  }
  attr {
    key: "padding"
    value {
      s: "SAME"
    }
  }
  attr {
    key: "strides"
    value {
      list {
        i: 1
        i: 2
        i: 2
        i: 1
      }
    }
  }
}
node {
  name: "Adam/gradients/Conv2D_1/Relu_grad/ReluGrad"
  op: "ReluGrad"
  input: "Adam/gradients/MaxPool2D_1/MaxPool_grad/MaxPoolGrad"
  input: "Conv2D_1/Relu"
  attr {
    key: "T"
    value {
      type: DT_FLOAT
    }
  }
}
node {
  name: "Adam/gradients/Conv2D_1/BiasAdd_grad/BiasAddGrad"
  op: "BiasAddGrad"
  input: "Adam/gradients/Conv2D_1/Relu_grad/ReluGrad"
  attr {
    key: "T"
    value {
      type: DT_FLOAT
    }
  }
  attr {
    key: "data_format"
    value {
      s: "NHWC"
    }
  }
}
node {
  name: "Adam/gradients/Conv2D_1/Conv2D_grad/Shape"
  op: "Shape"
  input: "MaxPool2D/MaxPool"
  input: "^Adam/moving_avg"
  input: "^moving_avg"
  attr {
    key: "T"
    value {
      type: DT_FLOAT
    }
  }
  attr {
    key: "out_type"
    value {
      type: DT_INT32
    }
  }
}
node {
  name: "Adam/gradients/Conv2D_1/Conv2D_grad/Conv2DBackpropInput"
  op: "Conv2DBackpropInput"
  input: "Adam/gradients/Conv2D_1/Conv2D_grad/Shape"
  input: "Conv2D_1/W/read"
  input: "Adam/gradients/Conv2D_1/Relu_grad/ReluGrad"
  attr {
    key: "T"
    value {
      type: DT_FLOAT
    }
  }
  attr {
    key: "data_format"
    value {
      s: "NHWC"
    }
  }
  attr {
    key: "padding"
    value {
      s: "SAME"
    }
  }
  attr {
    key: "strides"
    value {
      list {
        i: 1
        i: 1
        i: 1
        i: 1
      }
    }
  }
  attr {
    key: "use_cudnn_on_gpu"
    value {
      b: true
    }
  }
}
node {
  name: "Adam/gradients/Conv2D_1/Conv2D_grad/Shape_1"
  op: "Const"
  input: "^Adam/moving_avg"
  input: "^moving_avg"
  attr {
    key: "dtype"
    value {
      type: DT_INT32
    }
  }
  attr {
    key: "value"
    value {
      tensor {
        dtype: DT_INT32
        tensor_shape {
          dim {
            size: 4
          }
        }
        tensor_content: "\002\000\000\000\002\000\000\000 \000\000\000@\000\000\000"
      }
    }
  }
}
node {
  name: "Adam/gradients/Conv2D_1/Conv2D_grad/Conv2DBackpropFilter"
  op: "Conv2DBackpropFilter"
  input: "MaxPool2D/MaxPool"
  input: "Adam/gradients/Conv2D_1/Conv2D_grad/Shape_1"
  input: "Adam/gradients/Conv2D_1/Relu_grad/ReluGrad"
  attr {
    key: "T"
    value {
      type: DT_FLOAT
    }
  }
  attr {
    key: "data_format"
    value {
      s: "NHWC"
    }
  }
  attr {
    key: "padding"
    value {
      s: "SAME"
    }
  }
  attr {
    key: "strides"
    value {
      list {
        i: 1
        i: 1
        i: 1
        i: 1
      }
    }
  }
  attr {
    key: "use_cudnn_on_gpu"
    value {
      b: true
    }
  }
}
node {
  name: "Adam/gradients/MaxPool2D/MaxPool_grad/MaxPoolGrad"
  op: "MaxPoolGrad"
  input: "Conv2D/Relu"
  input: "MaxPool2D/MaxPool"
  input: "Adam/gradients/Conv2D_1/Conv2D_grad/Conv2DBackpropInput"
  attr {
    key: "T"
    value {
      type: DT_FLOAT
    }
  }
  attr {
    key: "data_format"
    value {
      s: "NHWC"
    }
  }
  attr {
    key: "ksize"
    value {
      list {
        i: 1
        i: 2
        i: 2
        i: 1
      }
    }
  }
  attr {
    key: "padding"
    value {
      s: "SAME"
    }
  }
  attr {
    key: "strides"
    value {
      list {
        i: 1
        i: 2
        i: 2
        i: 1
      }
    }
  }
}
node {
  name: "Adam/gradients/Conv2D/Relu_grad/ReluGrad"
  op: "ReluGrad"
  input: "Adam/gradients/MaxPool2D/MaxPool_grad/MaxPoolGrad"
  input: "Conv2D/Relu"
  attr {
    key: "T"
    value {
      type: DT_FLOAT
    }
  }
}
node {
  name: "Adam/gradients/Conv2D/BiasAdd_grad/BiasAddGrad"
  op: "BiasAddGrad"
  input: "Adam/gradients/Conv2D/Relu_grad/ReluGrad"
  attr {
    key: "T"
    value {
      type: DT_FLOAT
    }
  }
  attr {
    key: "data_format"
    value {
      s: "NHWC"
    }
  }
}
node {
  name: "Adam/gradients/Conv2D/Conv2D_grad/Shape"
  op: "Shape"
  input: "input/X"
  input: "^Adam/moving_avg"
  input: "^moving_avg"
  attr {
    key: "T"
    value {
      type: DT_FLOAT
    }
  }
  attr {
    key: "out_type"
    value {
      type: DT_INT32
    }
  }
}
node {
  name: "Adam/gradients/Conv2D/Conv2D_grad/Conv2DBackpropInput"
  op: "Conv2DBackpropInput"
  input: "Adam/gradients/Conv2D/Conv2D_grad/Shape"
  input: "Conv2D/W/read"
  input: "Adam/gradients/Conv2D/Relu_grad/ReluGrad"
  attr {
    key: "T"
    value {
      type: DT_FLOAT
    }
  }
  attr {
    key: "data_format"
    value {
      s: "NHWC"
    }
  }
  attr {
    key: "padding"
    value {
      s: "SAME"
    }
  }
  attr {
    key: "strides"
    value {
      list {
        i: 1
        i: 1
        i: 1
        i: 1
      }
    }
  }
  attr {
    key: "use_cudnn_on_gpu"
    value {
      b: true
    }
  }
}
node {
  name: "Adam/gradients/Conv2D/Conv2D_grad/Shape_1"
  op: "Const"
  input: "^Adam/moving_avg"
  input: "^moving_avg"
  attr {
    key: "dtype"
    value {
      type: DT_INT32
    }
  }
  attr {
    key: "value"
    value {
      tensor {
        dtype: DT_INT32
        tensor_shape {
          dim {
            size: 4
          }
        }
        tensor_content: "\002\000\000\000\002\000\000\000\001\000\000\000 \000\000\000"
      }
    }
  }
}
node {
  name: "Adam/gradients/Conv2D/Conv2D_grad/Conv2DBackpropFilter"
  op: "Conv2DBackpropFilter"
  input: "input/X"
  input: "Adam/gradients/Conv2D/Conv2D_grad/Shape_1"
  input: "Adam/gradients/Conv2D/Relu_grad/ReluGrad"
  attr {
    key: "T"
    value {
      type: DT_FLOAT
    }
  }
  attr {
    key: "data_format"
    value {
      s: "NHWC"
    }
  }
  attr {
    key: "padding"
    value {
      s: "SAME"
    }
  }
  attr {
    key: "strides"
    value {
      list {
        i: 1
        i: 1
        i: 1
        i: 1
      }
    }
  }
  attr {
    key: "use_cudnn_on_gpu"
    value {
      b: true
    }
  }
}
node {
  name: "Adam/global_norm/L2Loss"
  op: "L2Loss"
  input: "Adam/gradients/Conv2D/Conv2D_grad/Conv2DBackpropFilter"
  attr {
    key: "T"
    value {
      type: DT_FLOAT
    }
  }
  attr {
    key: "_class"
    value {
      list {
        s: "loc:@Adam/gradients/Conv2D/Conv2D_grad/Conv2DBackpropFilter"
      }
    }
  }
}
node {
  name: "Adam/global_norm/L2Loss_1"
  op: "L2Loss"
  input: "Adam/gradients/Conv2D/BiasAdd_grad/BiasAddGrad"
  attr {
    key: "T"
    value {
      type: DT_FLOAT
    }
  }
  attr {
    key: "_class"
    value {
      list {
        s: "loc:@Adam/gradients/Conv2D/BiasAdd_grad/BiasAddGrad"
      }
    }
  }
}
node {
  name: "Adam/global_norm/L2Loss_2"
  op: "L2Loss"
  input: "Adam/gradients/Conv2D_1/Conv2D_grad/Conv2DBackpropFilter"
  attr {
    key: "T"
    value {
      type: DT_FLOAT
    }
  }
  attr {
    key: "_class"
    value {
      list {
        s: "loc:@Adam/gradients/Conv2D_1/Conv2D_grad/Conv2DBackpropFilter"
      }
    }
  }
}
node {
  name: "Adam/global_norm/L2Loss_3"
  op: "L2Loss"
  input: "Adam/gradients/Conv2D_1/BiasAdd_grad/BiasAddGrad"
  attr {
    key: "T"
    value {
      type: DT_FLOAT
    }
  }
  attr {
    key: "_class"
    value {
      list {
        s: "loc:@Adam/gradients/Conv2D_1/BiasAdd_grad/BiasAddGrad"
      }
    }
  }
}
node {
  name: "Adam/global_norm/L2Loss_4"
  op: "L2Loss"
  input: "Adam/gradients/Conv2D_2/Conv2D_grad/Conv2DBackpropFilter"
  attr {
    key: "T"
    value {
      type: DT_FLOAT
    }
  }
  attr {
    key: "_class"
    value {
      list {
        s: "loc:@Adam/gradients/Conv2D_2/Conv2D_grad/Conv2DBackpropFilter"
      }
    }
  }
}
node {
  name: "Adam/global_norm/L2Loss_5"
  op: "L2Loss"
  input: "Adam/gradients/Conv2D_2/BiasAdd_grad/BiasAddGrad"
  attr {
    key: "T"
    value {
      type: DT_FLOAT
    }
  }
  attr {
    key: "_class"
    value {
      list {
        s: "loc:@Adam/gradients/Conv2D_2/BiasAdd_grad/BiasAddGrad"
      }
    }
  }
}
node {
  name: "Adam/global_norm/L2Loss_6"
  op: "L2Loss"
  input: "Adam/gradients/Conv2D_3/Conv2D_grad/Conv2DBackpropFilter"
  attr {
    key: "T"
    value {
      type: DT_FLOAT
    }
  }
  attr {
    key: "_class"
    value {
      list {
        s: "loc:@Adam/gradients/Conv2D_3/Conv2D_grad/Conv2DBackpropFilter"
      }
    }
  }
}
node {
  name: "Adam/global_norm/L2Loss_7"
  op: "L2Loss"
  input: "Adam/gradients/Conv2D_3/BiasAdd_grad/BiasAddGrad"
  attr {
    key: "T"
    value {
      type: DT_FLOAT
    }
  }
  attr {
    key: "_class"
    value {
      list {
        s: "loc:@Adam/gradients/Conv2D_3/BiasAdd_grad/BiasAddGrad"
      }
    }
  }
}
node {
  name: "Adam/global_norm/L2Loss_8"
  op: "L2Loss"
  input: "Adam/gradients/Conv2D_4/Conv2D_grad/Conv2DBackpropFilter"
  attr {
    key: "T"
    value {
      type: DT_FLOAT
    }
  }
  attr {
    key: "_class"
    value {
      list {
        s: "loc:@Adam/gradients/Conv2D_4/Conv2D_grad/Conv2DBackpropFilter"
      }
    }
  }
}
node {
  name: "Adam/global_norm/L2Loss_9"
  op: "L2Loss"
  input: "Adam/gradients/Conv2D_4/BiasAdd_grad/BiasAddGrad"
  attr {
    key: "T"
    value {
      type: DT_FLOAT
    }
  }
  attr {
    key: "_class"
    value {
      list {
        s: "loc:@Adam/gradients/Conv2D_4/BiasAdd_grad/BiasAddGrad"
      }
    }
  }
}
node {
  name: "Adam/global_norm/L2Loss_10"
  op: "L2Loss"
  input: "Adam/gradients/Conv2D_5/Conv2D_grad/Conv2DBackpropFilter"
  attr {
    key: "T"
    value {
      type: DT_FLOAT
    }
  }
  attr {
    key: "_class"
    value {
      list {
        s: "loc:@Adam/gradients/Conv2D_5/Conv2D_grad/Conv2DBackpropFilter"
      }
    }
  }
}
node {
  name: "Adam/global_norm/L2Loss_11"
  op: "L2Loss"
  input: "Adam/gradients/Conv2D_5/BiasAdd_grad/BiasAddGrad"
  attr {
    key: "T"
    value {
      type: DT_FLOAT
    }
  }
  attr {
    key: "_class"
    value {
      list {
        s: "loc:@Adam/gradients/Conv2D_5/BiasAdd_grad/BiasAddGrad"
      }
    }
  }
}
node {
  name: "Adam/global_norm/L2Loss_12"
  op: "L2Loss"
  input: "Adam/gradients/FullyConnected/MatMul_grad/MatMul_1"
  attr {
    key: "T"
    value {
      type: DT_FLOAT
    }
  }
  attr {
    key: "_class"
    value {
      list {
        s: "loc:@Adam/gradients/FullyConnected/MatMul_grad/MatMul_1"
      }
    }
  }
}
node {
  name: "Adam/global_norm/L2Loss_13"
  op: "L2Loss"
  input: "Adam/gradients/FullyConnected/BiasAdd_grad/BiasAddGrad"
  attr {
    key: "T"
    value {
      type: DT_FLOAT
    }
  }
  attr {
    key: "_class"
    value {
      list {
        s: "loc:@Adam/gradients/FullyConnected/BiasAdd_grad/BiasAddGrad"
      }
    }
  }
}
node {
  name: "Adam/global_norm/L2Loss_14"
  op: "L2Loss"
  input: "Adam/gradients/output/MatMul_grad/MatMul_1"
  attr {
    key: "T"
    value {
      type: DT_FLOAT
    }
  }
  attr {
    key: "_class"
    value {
      list {
        s: "loc:@Adam/gradients/output/MatMul_grad/MatMul_1"
      }
    }
  }
}
node {
  name: "Adam/global_norm/L2Loss_15"
  op: "L2Loss"
  input: "Adam/gradients/output/BiasAdd_grad/BiasAddGrad"
  attr {
    key: "T"
    value {
      type: DT_FLOAT
    }
  }
  attr {
    key: "_class"
    value {
      list {
        s: "loc:@Adam/gradients/output/BiasAdd_grad/BiasAddGrad"
      }
    }
  }
}
node {
  name: "Adam/global_norm/stack"
  op: "Pack"
  input: "Adam/global_norm/L2Loss"
  input: "Adam/global_norm/L2Loss_1"
  input: "Adam/global_norm/L2Loss_2"
  input: "Adam/global_norm/L2Loss_3"
  input: "Adam/global_norm/L2Loss_4"
  input: "Adam/global_norm/L2Loss_5"
  input: "Adam/global_norm/L2Loss_6"
  input: "Adam/global_norm/L2Loss_7"
  input: "Adam/global_norm/L2Loss_8"
  input: "Adam/global_norm/L2Loss_9"
  input: "Adam/global_norm/L2Loss_10"
  input: "Adam/global_norm/L2Loss_11"
  input: "Adam/global_norm/L2Loss_12"
  input: "Adam/global_norm/L2Loss_13"
  input: "Adam/global_norm/L2Loss_14"
  input: "Adam/global_norm/L2Loss_15"
  attr {
    key: "N"
    value {
      i: 16
    }
  }
  attr {
    key: "T"
    value {
      type: DT_FLOAT
    }
  }
  attr {
    key: "axis"
    value {
      i: 0
    }
  }
}
node {
  name: "Adam/global_norm/Const"
  op: "Const"
  input: "^Adam/moving_avg"
  input: "^moving_avg"
  attr {
    key: "dtype"
    value {
      type: DT_INT32
    }
  }
  attr {
    key: "value"
    value {
      tensor {
        dtype: DT_INT32
        tensor_shape {
          dim {
            size: 1
          }
        }
        int_val: 0
      }
    }
  }
}
node {
  name: "Adam/global_norm/Sum"
  op: "Sum"
  input: "Adam/global_norm/stack"
  input: "Adam/global_norm/Const"
  attr {
    key: "T"
    value {
      type: DT_FLOAT
    }
  }
  attr {
    key: "Tidx"
    value {
      type: DT_INT32
    }
  }
  attr {
    key: "keep_dims"
    value {
      b: false
    }
  }
}
node {
  name: "Adam/global_norm/Const_1"
  op: "Const"
  input: "^Adam/moving_avg"
  input: "^moving_avg"
  attr {
    key: "dtype"
    value {
      type: DT_FLOAT
    }
  }
  attr {
    key: "value"
    value {
      tensor {
        dtype: DT_FLOAT
        tensor_shape {
        }
        float_val: 2.0
      }
    }
  }
}
node {
  name: "Adam/global_norm/mul"
  op: "Mul"
  input: "Adam/global_norm/Sum"
  input: "Adam/global_norm/Const_1"
  attr {
    key: "T"
    value {
      type: DT_FLOAT
    }
  }
}
node {
  name: "Adam/global_norm/global_norm"
  op: "Sqrt"
  input: "Adam/global_norm/mul"
  attr {
    key: "T"
    value {
      type: DT_FLOAT
    }
  }
}
node {
  name: "Adam/clip_by_global_norm/truediv/x"
  op: "Const"
  input: "^Adam/moving_avg"
  input: "^moving_avg"
  attr {
    key: "dtype"
    value {
      type: DT_FLOAT
    }
  }
  attr {
    key: "value"
    value {
      tensor {
        dtype: DT_FLOAT
        tensor_shape {
        }
        float_val: 1.0
      }
    }
  }
}
node {
  name: "Adam/clip_by_global_norm/truediv"
  op: "RealDiv"
  input: "Adam/clip_by_global_norm/truediv/x"
  input: "Adam/global_norm/global_norm"
  attr {
    key: "T"
    value {
      type: DT_FLOAT
    }
  }
}
node {
  name: "Adam/clip_by_global_norm/Const"
  op: "Const"
  input: "^Adam/moving_avg"
  input: "^moving_avg"
  attr {
    key: "dtype"
    value {
      type: DT_FLOAT
    }
  }
  attr {
    key: "value"
    value {
      tensor {
        dtype: DT_FLOAT
        tensor_shape {
        }
        float_val: 1.0
      }
    }
  }
}
node {
  name: "Adam/clip_by_global_norm/truediv_1/y"
  op: "Const"
  input: "^Adam/moving_avg"
  input: "^moving_avg"
  attr {
    key: "dtype"
    value {
      type: DT_FLOAT
    }
  }
  attr {
    key: "value"
    value {
      tensor {
        dtype: DT_FLOAT
        tensor_shape {
        }
        float_val: 5.0
      }
    }
  }
}
node {
  name: "Adam/clip_by_global_norm/truediv_1"
  op: "RealDiv"
  input: "Adam/clip_by_global_norm/Const"
  input: "Adam/clip_by_global_norm/truediv_1/y"
  attr {
    key: "T"
    value {
      type: DT_FLOAT
    }
  }
}
node {
  name: "Adam/clip_by_global_norm/Minimum"
  op: "Minimum"
  input: "Adam/clip_by_global_norm/truediv"
  input: "Adam/clip_by_global_norm/truediv_1"
  attr {
    key: "T"
    value {
      type: DT_FLOAT
    }
  }
}
node {
  name: "Adam/clip_by_global_norm/mul/x"
  op: "Const"
  input: "^Adam/moving_avg"
  input: "^moving_avg"
  attr {
    key: "dtype"
    value {
      type: DT_FLOAT
    }
  }
  attr {
    key: "value"
    value {
      tensor {
        dtype: DT_FLOAT
        tensor_shape {
        }
        float_val: 5.0
      }
    }
  }
}
node {
  name: "Adam/clip_by_global_norm/mul"
  op: "Mul"
  input: "Adam/clip_by_global_norm/mul/x"
  input: "Adam/clip_by_global_norm/Minimum"
  attr {
    key: "T"
    value {
      type: DT_FLOAT
    }
  }
}
node {
  name: "Adam/clip_by_global_norm/mul_1"
  op: "Mul"
  input: "Adam/gradients/Conv2D/Conv2D_grad/Conv2DBackpropFilter"
  input: "Adam/clip_by_global_norm/mul"
  attr {
    key: "T"
    value {
      type: DT_FLOAT
    }
  }
  attr {
    key: "_class"
    value {
      list {
        s: "loc:@Adam/gradients/Conv2D/Conv2D_grad/Conv2DBackpropFilter"
      }
    }
  }
}
node {
  name: "Adam/clip_by_global_norm/Adam/clip_by_global_norm/_0"
  op: "Identity"
  input: "Adam/clip_by_global_norm/mul_1"
  attr {
    key: "T"
    value {
      type: DT_FLOAT
    }
  }
  attr {
    key: "_class"
    value {
      list {
        s: "loc:@Adam/gradients/Conv2D/Conv2D_grad/Conv2DBackpropFilter"
      }
    }
  }
}
node {
  name: "Adam/clip_by_global_norm/mul_2"
  op: "Mul"
  input: "Adam/gradients/Conv2D/BiasAdd_grad/BiasAddGrad"
  input: "Adam/clip_by_global_norm/mul"
  attr {
    key: "T"
    value {
      type: DT_FLOAT
    }
  }
  attr {
    key: "_class"
    value {
      list {
        s: "loc:@Adam/gradients/Conv2D/BiasAdd_grad/BiasAddGrad"
      }
    }
  }
}
node {
  name: "Adam/clip_by_global_norm/Adam/clip_by_global_norm/_1"
  op: "Identity"
  input: "Adam/clip_by_global_norm/mul_2"
  attr {
…
  }
  attr {
    key: "value"
    value {
      tensor {
        dtype: DT_STRING
        tensor_shape {
          dim {
            size: 1
          }
        }
        string_val: "Conv2D_3/b/Adam"
      }
    }
  }
}
node {
  name: "save_3/RestoreV2_25/shape_and_slices"
  op: "Const"
  attr {
    key: "dtype"
    value {
      type: DT_STRING
    }
  }
  attr {
    key: "value"
    value {
      tensor {
        dtype: DT_STRING
        tensor_shape {
          dim {
            size: 1
          }
        }
        string_val: ""
      }
    }
  }
}
node {
  name: "save_3/RestoreV2_25"
  op: "RestoreV2"
  input: "save_3/Const"
  input: "save_3/RestoreV2_25/tensor_names"
  input: "save_3/RestoreV2_25/shape_and_slices"
  attr {
    key: "dtypes"
    value {
      list {
        type: DT_FLOAT
      }
    }
  }
}
node {
  name: "save_3/Assign_25"
  op: "Assign"
  input: "Conv2D_3/b/Adam"
  input: "save_3/RestoreV2_25"
  attr {
    key: "T"
    value {
      type: DT_FLOAT
    }
  }
  attr {
    key: "_class"
    value {
      list {
        s: "loc:@Conv2D_3/b"
      }
    }
  }
  attr {
    key: "use_locking"
    value {
      b: true
    }
  }
  attr {
    key: "validate_shape"
    value {
      b: true
    }
  }
}
node {
  name: "save_3/RestoreV2_26/tensor_names"
  op: "Const"
  attr {
    key: "dtype"
    value {
      type: DT_STRING
    }
  }
  attr {
    key: "value"
    value {
      tensor {
        dtype: DT_STRING
        tensor_shape {
          dim {
            size: 1
          }
        }
        string_val: "Conv2D_3/b/Adam_1"
      }
    }
  }
}
node {
  name: "save_3/RestoreV2_26/shape_and_slices"
  op: "Const"
  attr {
    key: "dtype"
    value {
      type: DT_STRING
    }
  }
  attr {
    key: "value"
    value {
      tensor {
        dtype: DT_STRING
        tensor_shape {
          dim {
            size: 1
          }
        }
        string_val: ""
      }
    }
  }
}
node {
  name: "save_3/RestoreV2_26"
  op: "RestoreV2"
  input: "save_3/Const"
  input: "save_3/RestoreV2_26/tensor_names"
  input: "save_3/RestoreV2_26/shape_and_slices"
  attr {
    key: "dtypes"
    value {
      list {
        type: DT_FLOAT
      }
    }
  }
}
node {
  name: "save_3/Assign_26"
  op: "Assign"
  input: "Conv2D_3/b/Adam_1"
  input: "save_3/RestoreV2_26"
  attr {
    key: "T"
    value {
      type: DT_FLOAT
    }
  }
  attr {
    key: "_class"
    value {
      list {
        s: "loc:@Conv2D_3/b"
      }
    }
  }
  attr {
    key: "use_locking"
    value {
      b: true
    }
  }
  attr {
    key: "validate_shape"
    value {
      b: true
    }
  }
}
node {
  name: "save_3/RestoreV2_27/tensor_names"
  op: "Const"
  attr {
    key: "dtype"
    value {
      type: DT_STRING
    }
  }
  attr {
    key: "value"
    value {
      tensor {
        dtype: DT_STRING
        tensor_shape {
          dim {
            size: 1
          }
        }
        string_val: "Conv2D_4/W"
      }
    }
  }
}
node {
  name: "save_3/RestoreV2_27/shape_and_slices"
  op: "Const"
  attr {
    key: "dtype"
    value {
      type: DT_STRING
    }
  }
  attr {
    key: "value"
    value {
      tensor {
        dtype: DT_STRING
        tensor_shape {
          dim {
            size: 1
          }
        }
        string_val: ""
      }
    }
  }
}
node {
  name: "save_3/RestoreV2_27"
  op: "RestoreV2"
  input: "save_3/Const"
  input: "save_3/RestoreV2_27/tensor_names"
  input: "save_3/RestoreV2_27/shape_and_slices"
  attr {
    key: "dtypes"
    value {
      list {
        type: DT_FLOAT
      }
    }
  }
}
node {
  name: "save_3/Assign_27"
  op: "Assign"
  input: "Conv2D_4/W"
  input: "save_3/RestoreV2_27"
  attr {
    key: "T"
    value {
      type: DT_FLOAT
    }
  }
  attr {
    key: "_class"
    value {
      list {
        s: "loc:@Conv2D_4/W"
      }
    }
  }
  attr {
    key: "use_locking"
    value {
      b: true
    }
  }
  attr {
    key: "validate_shape"
    value {
      b: true
    }
  }
}
node {
  name: "save_3/RestoreV2_28/tensor_names"
  op: "Const"
  attr {
    key: "dtype"
    value {
      type: DT_STRING
    }
  }
  attr {
    key: "value"
    value {
      tensor {
        dtype: DT_STRING
        tensor_shape {
          dim {
            size: 1
          }
        }
        string_val: "Conv2D_4/W/Adam"
      }
    }
  }
}
node {
  name: "save_3/RestoreV2_28/shape_and_slices"
  op: "Const"
  attr {
    key: "dtype"
    value {
      type: DT_STRING
    }
  }
  attr {
    key: "value"
    value {
      tensor {
        dtype: DT_STRING
        tensor_shape {
          dim {
            size: 1
          }
        }
        string_val: ""
      }
    }
  }
}
node {
  name: "save_3/RestoreV2_28"
  op: "RestoreV2"
  input: "save_3/Const"
  input: "save_3/RestoreV2_28/tensor_names"
  input: "save_3/RestoreV2_28/shape_and_slices"
  attr {
    key: "dtypes"
    value {
      list {
        type: DT_FLOAT
      }
    }
  }
}
node {
  name: "save_3/Assign_28"
  op: "Assign"
  input: "Conv2D_4/W/Adam"
  input: "save_3/RestoreV2_28"
  attr {
    key: "T"
    value {
      type: DT_FLOAT
    }
  }
  attr {
    key: "_class"
    value {
      list {
        s: "loc:@Conv2D_4/W"
      }
    }
  }
  attr {
    key: "use_locking"
    value {
      b: true
    }
  }
  attr {
    key: "validate_shape"
    value {
      b: true
    }
  }
}
node {
  name: "save_3/RestoreV2_29/tensor_names"
  op: "Const"
  attr {
    key: "dtype"
    value {
      type: DT_STRING
    }
  }
  attr {
    key: "value"
    value {
      tensor {
        dtype: DT_STRING
        tensor_shape {
          dim {
            size: 1
          }
        }
        string_val: "Conv2D_4/W/Adam_1"
      }
    }
  }
}
node {
  name: "save_3/RestoreV2_29/shape_and_slices"
  op: "Const"
  attr {
    key: "dtype"
    value {
      type: DT_STRING
    }
  }
  attr {
    key: "value"
    value {
      tensor {
        dtype: DT_STRING
        tensor_shape {
          dim {
            size: 1
          }
        }
        string_val: ""
      }
    }
  }
}
node {
  name: "save_3/RestoreV2_29"
  op: "RestoreV2"
  input: "save_3/Const"
  input: "save_3/RestoreV2_29/tensor_names"
  input: "save_3/RestoreV2_29/shape_and_slices"
  attr {
    key: "dtypes"
    value {
      list {
        type: DT_FLOAT
      }
    }
  }
}
node {
  name: "save_3/Assign_29"
  op: "Assign"
  input: "Conv2D_4/W/Adam_1"
  input: "save_3/RestoreV2_29"
  attr {
    key: "T"
    value {
      type: DT_FLOAT
    }
  }
  attr {
    key: "_class"
    value {
      list {
        s: "loc:@Conv2D_4/W"
      }
    }
  }
  attr {
    key: "use_locking"
    value {
      b: true
    }
  }
  attr {
    key: "validate_shape"
    value {
      b: true
    }
  }
}
node {
  name: "save_3/RestoreV2_30/tensor_names"
  op: "Const"
  attr {
    key: "dtype"
    value {
      type: DT_STRING
    }
  }
  attr {
    key: "value"
    value {
      tensor {
        dtype: DT_STRING
        tensor_shape {
          dim {
            size: 1
          }
        }
        string_val: "Conv2D_4/b"
      }
    }
  }
}
node {
  name: "save_3/RestoreV2_30/shape_and_slices"
  op: "Const"
  attr {
    key: "dtype"
    value {
      type: DT_STRING
    }
  }
  attr {
    key: "value"
    value {
      tensor {
        dtype: DT_STRING
        tensor_shape {
          dim {
            size: 1
          }
        }
        string_val: ""
      }
    }
  }
}
node {
  name: "save_3/RestoreV2_30"
  op: "RestoreV2"
  input: "save_3/Const"
  input: "save_3/RestoreV2_30/tensor_names"
  input: "save_3/RestoreV2_30/shape_and_slices"
  attr {
    key: "dtypes"
    value {
      list {
        type: DT_FLOAT
      }
    }
  }
}
node {
  name: "save_3/Assign_30"
  op: "Assign"
  input: "Conv2D_4/b"
  input: "save_3/RestoreV2_30"
  attr {
    key: "T"
    value {
      type: DT_FLOAT
    }
  }
  attr {
    key: "_class"
    value {
      list {
        s: "loc:@Conv2D_4/b"
      }
    }
  }
  attr {
    key: "use_locking"
    value {
      b: true
    }
  }
  attr {
    key: "validate_shape"
    value {
      b: true
    }
  }
}
node {
  name: "save_3/RestoreV2_31/tensor_names"
  op: "Const"
  attr {
    key: "dtype"
    value {
      type: DT_STRING
    }
  }
  attr {
    key: "value"
    value {
      tensor {
        dtype: DT_STRING
        tensor_shape {
          dim {
            size: 1
          }
        }
        string_val: "Conv2D_4/b/Adam"
      }
    }
  }
}
node {
  name: "save_3/RestoreV2_31/shape_and_slices"
  op: "Const"
  attr {
    key: "dtype"
    value {
      type: DT_STRING
    }
  }
  attr {
    key: "value"
    value {
      tensor {
        dtype: DT_STRING
        tensor_shape {
          dim {
            size: 1
          }
        }
        string_val: ""
      }
    }
  }
}
node {
  name: "save_3/RestoreV2_31"
  op: "RestoreV2"
  input: "save_3/Const"
  input: "save_3/RestoreV2_31/tensor_names"
  input: "save_3/RestoreV2_31/shape_and_slices"
  attr {
    key: "dtypes"
    value {
      list {
        type: DT_FLOAT
      }
    }
  }
}
node {
  name: "save_3/Assign_31"
  op: "Assign"
  input: "Conv2D_4/b/Adam"
  input: "save_3/RestoreV2_31"
  attr {
    key: "T"
    value {
      type: DT_FLOAT
    }
  }
  attr {
    key: "_class"
    value {
      list {
        s: "loc:@Conv2D_4/b"
      }
    }
  }
  attr {
    key: "use_locking"
    value {
      b: true
    }
  }
  attr {
    key: "validate_shape"
    value {
      b: true
    }
  }
}
node {
  name: "save_3/RestoreV2_32/tensor_names"
  op: "Const"
  attr {
    key: "dtype"
    value {
      type: DT_STRING
    }
  }
  attr {
    key: "value"
    value {
      tensor {
        dtype: DT_STRING
        tensor_shape {
          dim {
            size: 1
          }
        }
        string_val: "Conv2D_4/b/Adam_1"
      }
    }
  }
}
node {
  name: "save_3/RestoreV2_32/shape_and_slices"
  op: "Const"
  attr {
    key: "dtype"
    value {
      type: DT_STRING
    }
  }
  attr {
    key: "value"
    value {
      tensor {
        dtype: DT_STRING
        tensor_shape {
          dim {
            size: 1
          }
        }
        string_val: ""
      }
    }
  }
}
node {
  name: "save_3/RestoreV2_32"
  op: "RestoreV2"
  input: "save_3/Const"
  input: "save_3/RestoreV2_32/tensor_names"
  input: "save_3/RestoreV2_32/shape_and_slices"
  attr {
    key: "dtypes"
    value {
      list {
        type: DT_FLOAT
      }
    }
  }
}
node {
  name: "save_3/Assign_32"
  op: "Assign"
  input: "Conv2D_4/b/Adam_1"
  input: "save_3/RestoreV2_32"
  attr {
    key: "T"
    value {
      type: DT_FLOAT
    }
  }
  attr {
    key: "_class"
    value {
      list {
        s: "loc:@Conv2D_4/b"
      }
    }
  }
  attr {
    key: "use_locking"
    value {
      b: true
    }
  }
  attr {
    key: "validate_shape"
    value {
      b: true
    }
  }
}
node {
  name: "save_3/RestoreV2_33/tensor_names"
  op: "Const"
  attr {
    key: "dtype"
    value {
      type: DT_STRING
    }
  }
  attr {
    key: "value"
    value {
      tensor {
        dtype: DT_STRING
        tensor_shape {
          dim {
            size: 1
          }
        }
        string_val: "Conv2D_5/W"
      }
    }
  }
}
node {
  name: "save_3/RestoreV2_33/shape_and_slices"
  op: "Const"
  attr {
    key: "dtype"
    value {
      type: DT_STRING
    }
  }
  attr {
    key: "value"
    value {
      tensor {
        dtype: DT_STRING
        tensor_shape {
          dim {
            size: 1
          }
        }
        string_val: ""
      }
    }
  }
}
node {
  name: "save_3/RestoreV2_33"
  op: "RestoreV2"
  input: "save_3/Const"
  input: "save_3/RestoreV2_33/tensor_names"
  input: "save_3/RestoreV2_33/shape_and_slices"
  attr {
    key: "dtypes"
    value {
      list {
        type: DT_FLOAT
      }
    }
  }
}
node {
  name: "save_3/Assign_33"
  op: "Assign"
  input: "Conv2D_5/W"
  input: "save_3/RestoreV2_33"
  attr {
    key: "T"
    value {
      type: DT_FLOAT
    }
  }
  attr {
    key: "_class"
    value {
      list {
        s: "loc:@Conv2D_5/W"
      }
    }
  }
  attr {
    key: "use_locking"
    value {
      b: true
    }
  }
  attr {
    key: "validate_shape"
    value {
      b: true
    }
  }
}
node {
  name: "save_3/RestoreV2_34/tensor_names"
  op: "Const"
  attr {
    key: "dtype"
    value {
      type: DT_STRING
    }
  }
  attr {
    key: "value"
    value {
      tensor {
        dtype: DT_STRING
        tensor_shape {
          dim {
            size: 1
          }
        }
        string_val: "Conv2D_5/W/Adam"
      }
    }
  }
}
node {
  name: "save_3/RestoreV2_34/shape_and_slices"
  op: "Const"
  attr {
    key: "dtype"
    value {
      type: DT_STRING
    }
  }
  attr {
    key: "value"
    value {
      tensor {
        dtype: DT_STRING
        tensor_shape {
          dim {
            size: 1
          }
        }
        string_val: ""
      }
    }
  }
}
node {
  name: "save_3/RestoreV2_34"
  op: "RestoreV2"
  input: "save_3/Const"
  input: "save_3/RestoreV2_34/tensor_names"
  input: "save_3/RestoreV2_34/shape_and_slices"
  attr {
    key: "dtypes"
    value {
      list {
        type: DT_FLOAT
      }
    }
  }
}
node {
  name: "save_3/Assign_34"
  op: "Assign"
  input: "Conv2D_5/W/Adam"
  input: "save_3/RestoreV2_34"
  attr {
    key: "T"
    value {
      type: DT_FLOAT
    }
  }
  attr {
    key: "_class"
    value {
      list {
        s: "loc:@Conv2D_5/W"
      }
    }
  }
  attr {
    key: "use_locking"
    value {
      b: true
    }
  }
  attr {
    key: "validate_shape"
    value {
      b: true
    }
  }
}
node {
  name: "save_3/RestoreV2_35/tensor_names"
  op: "Const"
  attr {
    key: "dtype"
    value {
      type: DT_STRING
    }
  }
  attr {
    key: "value"
    value {
      tensor {
        dtype: DT_STRING
        tensor_shape {
          dim {
            size: 1
          }
        }
        string_val: "Conv2D_5/W/Adam_1"
      }
    }
  }
}
node {
  name: "save_3/RestoreV2_35/shape_and_slices"
  op: "Const"
  attr {
    key: "dtype"
    value {
      type: DT_STRING
    }
  }
  attr {
    key: "value"
    value {
      tensor {
        dtype: DT_STRING
        tensor_shape {
          dim {
            size: 1
          }
        }
        string_val: ""
      }
    }
  }
}
node {
  name: "save_3/RestoreV2_35"
  op: "RestoreV2"
  input: "save_3/Const"
  input: "save_3/RestoreV2_35/tensor_names"
  input: "save_3/RestoreV2_35/shape_and_slices"
  attr {
    key: "dtypes"
    value {
      list {
        type: DT_FLOAT
      }
    }
  }
}
node {
  name: "save_3/Assign_35"
  op: "Assign"
  input: "Conv2D_5/W/Adam_1"
  input: "save_3/RestoreV2_35"
  attr {
    key: "T"
    value {
      type: DT_FLOAT
    }
  }
  attr {
    key: "_class"
    value {
      list {
        s: "loc:@Conv2D_5/W"
      }
    }
  }
  attr {
    key: "use_locking"
    value {
      b: true
    }
  }
  attr {
    key: "validate_shape"
    value {
      b: true
    }
  }
}
node {
  name: "save_3/RestoreV2_36/tensor_names"
  op: "Const"
  attr {
    key: "dtype"
    value {
      type: DT_STRING
    }
  }
  attr {
    key: "value"
    value {
      tensor {
        dtype: DT_STRING
        tensor_shape {
          dim {
            size: 1
          }
        }
        string_val: "Conv2D_5/b"
      }
    }
  }
}
node {
  name: "save_3/RestoreV2_36/shape_and_slices"
  op: "Const"
  attr {
    key: "dtype"
    value {
      type: DT_STRING
    }
  }
  attr {
    key: "value"
    value {
      tensor {
        dtype: DT_STRING
        tensor_shape {
          dim {
            size: 1
          }
        }
        string_val: ""
      }
    }
  }
}
node {
  name: "save_3/RestoreV2_36"
  op: "RestoreV2"
  input: "save_3/Const"
  input: "save_3/RestoreV2_36/tensor_names"
  input: "save_3/RestoreV2_36/shape_and_slices"
  attr {
    key: "dtypes"
    value {
      list {
        type: DT_FLOAT
      }
    }
  }
}
node {
  name: "save_3/Assign_36"
  op: "Assign"
  input: "Conv2D_5/b"
  input: "save_3/RestoreV2_36"
  attr {
    key: "T"
    value {
      type: DT_FLOAT
    }
  }
  attr {
    key: "_class"
    value {
      list {
        s: "loc:@Conv2D_5/b"
      }
    }
  }
  attr {
    key: "use_locking"
    value {
      b: true
    }
  }
  attr {
    key: "validate_shape"
    value {
      b: true
    }
  }
}
node {
  name: "save_3/RestoreV2_37/tensor_names"
  op: "Const"
  attr {
    key: "dtype"
    value {
      type: DT_STRING
    }
  }
  attr {
    key: "value"
    value {
      tensor {
        dtype: DT_STRING
        tensor_shape {
          dim {
            size: 1
          }
        }
        string_val: "Conv2D_5/b/Adam"
      }
    }
  }
}
node {
  name: "save_3/RestoreV2_37/shape_and_slices"
  op: "Const"
  attr {
    key: "dtype"
    value {
      type: DT_STRING
    }
  }
  attr {
    key: "value"
    value {
      tensor {
        dtype: DT_STRING
        tensor_shape {
          dim {
            size: 1
          }
        }
        string_val: ""
      }
    }
  }
}
node {
  name: "save_3/RestoreV2_37"
  op: "RestoreV2"
  input: "save_3/Const"
  input: "save_3/RestoreV2_37/tensor_names"
  input: "save_3/RestoreV2_37/shape_and_slices"
  attr {
    key: "dtypes"
    value {
      list {
        type: DT_FLOAT
      }
    }
  }
}
node {
  name: "save_3/Assign_37"
  op: "Assign"
  input: "Conv2D_5/b/Adam"
  input: "save_3/RestoreV2_37"
  attr {
    key: "T"
    value {
      type: DT_FLOAT
    }
  }
  attr {
    key: "_class"
    value {
      list {
        s: "loc:@Conv2D_5/b"
      }
    }
  }
  attr {
    key: "use_locking"
    value {
      b: true
    }
  }
  attr {
    key: "validate_shape"
    value {
      b: true
    }
  }
}
node {
  name: "save_3/RestoreV2_38/tensor_names"
  op: "Const"
  attr {
    key: "dtype"
    value {
      type: DT_STRING
    }
  }
  attr {
    key: "value"
    value {
      tensor {
        dtype: DT_STRING
        tensor_shape {
          dim {
            size: 1
          }
        }
        string_val: "Conv2D_5/b/Adam_1"
      }
    }
  }
}
node {
  name: "save_3/RestoreV2_38/shape_and_slices"
  op: "Const"
  attr {
    key: "dtype"
    value {
      type: DT_STRING
    }
  }
  attr {
    key: "value"
    value {
      tensor {
        dtype: DT_STRING
        tensor_shape {
          dim {
            size: 1
          }
        }
        string_val: ""
      }
    }
  }
}
node {
  name: "save_3/RestoreV2_38"
  op: "RestoreV2"
  input: "save_3/Const"
  input: "save_3/RestoreV2_38/tensor_names"
  input: "save_3/RestoreV2_38/shape_and_slices"
  attr {
    key: "dtypes"
    value {
      list {
        type: DT_FLOAT
      }
    }
  }
}
node {
  name: "save_3/Assign_38"
  op: "Assign"
  input: "Conv2D_5/b/Adam_1"
  input: "save_3/RestoreV2_38"
  attr {
    key: "T"
    value {
      type: DT_FLOAT
    }
  }
  attr {
    key: "_class"
    value {
      list {
        s: "loc:@Conv2D_5/b"
      }
    }
  }
  attr {
    key: "use_locking"
    value {
      b: true
    }
  }
  attr {
    key: "validate_shape"
    value {
      b: true
    }
  }
}
node {
  name: "save_3/RestoreV2_39/tensor_names"
  op: "Const"
  attr {
    key: "dtype"
    value {
      type: DT_STRING
    }
  }
  attr {
    key: "value"
    value {
      tensor {
        dtype: DT_STRING
        tensor_shape {
          dim {
            size: 1
          }
        }
        string_val: "Crossentropy/Mean/moving_avg"
      }
    }
  }
}
node {
  name: "save_3/RestoreV2_39/shape_and_slices"
  op: "Const"
  attr {
    key: "dtype"
    value {
      type: DT_STRING
    }
  }
  attr {
    key: "value"
    value {
      tensor {
        dtype: DT_STRING
        tensor_shape {
          dim {
            size: 1
          }
        }
        string_val: ""
      }
    }
  }
}
node {
  name: "save_3/RestoreV2_39"
  op: "RestoreV2"
  input: "save_3/Const"
  input: "save_3/RestoreV2_39/tensor_names"
  input: "save_3/RestoreV2_39/shape_and_slices"
  attr {
    key: "dtypes"
    value {
      list {
        type: DT_FLOAT
      }
    }
  }
}
node {
  name: "save_3/Assign_39"
  op: "Assign"
  input: "Crossentropy/Mean/moving_avg"
  input: "save_3/RestoreV2_39"
  attr {
    key: "T"
    value {
      type: DT_FLOAT
    }
  }
  attr {
    key: "_class"
    value {
      list {
        s: "loc:@Crossentropy/Mean/moving_avg"
      }
    }
  }
  attr {
    key: "use_locking"
    value {
      b: true
    }
  }
  attr {
    key: "validate_shape"
    value {
      b: true
    }
  }
}
node {
  name: "save_3/RestoreV2_40/tensor_names"
  op: "Const"
  attr {
    key: "dtype"
    value {
      type: DT_STRING
    }
  }
  attr {
    key: "value"
    value {
      tensor {
        dtype: DT_STRING
        tensor_shape {
          dim {
            size: 1
          }
        }
        string_val: "FullyConnected/W"
      }
    }
  }
}
node {
  name: "save_3/RestoreV2_40/shape_and_slices"
  op: "Const"
  attr {
    key: "dtype"
    value {
      type: DT_STRING
    }
  }
  attr {
    key: "value"
    value {
      tensor {
        dtype: DT_STRING
        tensor_shape {
          dim {
            size: 1
          }
        }
        string_val: ""
      }
    }
  }
}
node {
  name: "save_3/RestoreV2_40"
  op: "RestoreV2"
  input: "save_3/Const"
  input: "save_3/RestoreV2_40/tensor_names"
  input: "save_3/RestoreV2_40/shape_and_slices"
  attr {
    key: "dtypes"
    value {
      list {
        type: DT_FLOAT
      }
    }
  }
}
node {
  name: "save_3/Assign_40"
  op: "Assign"
  input: "FullyConnected/W"
  input: "save_3/RestoreV2_40"
  attr {
    key: "T"
    value {
      type: DT_FLOAT
    }
  }
  attr {
    key: "_class"
    value {
      list {
        s: "loc:@FullyConnected/W"
      }
    }
  }
  attr {
    key: "use_locking"
    value {
      b: true
    }
  }
  attr {
    key: "validate_shape"
    value {
      b: true
    }
  }
}
node {
  name: "save_3/RestoreV2_41/tensor_names"
  op: "Const"
  attr {
    key: "dtype"
    value {
      type: DT_STRING
    }
  }
  attr {
    key: "value"
    value {
      tensor {
        dtype: DT_STRING
        tensor_shape {
          dim {
            size: 1
          }
        }
        string_val: "FullyConnected/W/Adam"
      }
    }
  }
}
node {
  name: "save_3/RestoreV2_41/shape_and_slices"
  op: "Const"
  attr {
    key: "dtype"
    value {
      type: DT_STRING
    }
  }
  attr {
    key: "value"
    value {
      tensor {
        dtype: DT_STRING
        tensor_shape {
          dim {
            size: 1
          }
        }
        string_val: ""
      }
    }
  }
}
node {
  name: "save_3/RestoreV2_41"
  op: "RestoreV2"
  input: "save_3/Const"
  input: "save_3/RestoreV2_41/tensor_names"
  input: "save_3/RestoreV2_41/shape_and_slices"
  attr {
    key: "dtypes"
    value {
      list {
        type: DT_FLOAT
      }
    }
  }
}
node {
  name: "save_3/Assign_41"
  op: "Assign"
  input: "FullyConnected/W/Adam"
  input: "save_3/RestoreV2_41"
  attr {
    key: "T"
    value {
      type: DT_FLOAT
    }
  }
  attr {
    key: "_class"
    value {
      list {
        s: "loc:@FullyConnected/W"
      }
    }
  }
  attr {
    key: "use_locking"
    value {
      b: true
    }
  }
  attr {
    key: "validate_shape"
    value {
      b: true
    }
  }
}
node {
  name: "save_3/RestoreV2_42/tensor_names"
  op: "Const"
  attr {
    key: "dtype"
    value {
      type: DT_STRING
    }
  }
  attr {
    key: "value"
    value {
      tensor {
        dtype: DT_STRING
        tensor_shape {
          dim {
            size: 1
          }
        }
        string_val: "FullyConnected/W/Adam_1"
      }
    }
  }
}
node {
  name: "save_3/RestoreV2_42/shape_and_slices"
  op: "Const"
  attr {
    key: "dtype"
    value {
      type: DT_STRING
    }
  }
  attr {
    key: "value"
    value {
      tensor {
        dtype: DT_STRING
        tensor_shape {
          dim {
            size: 1
          }
        }
        string_val: ""
      }
    }
  }
}
node {
  name: "save_3/RestoreV2_42"
  op: "RestoreV2"
  input: "save_3/Const"
  input: "save_3/RestoreV2_42/tensor_names"
  input: "save_3/RestoreV2_42/shape_and_slices"
  attr {
    key: "dtypes"
    value {
      list {
        type: DT_FLOAT
      }
    }
  }
}
node {
  name: "save_3/Assign_42"
  op: "Assign"
  input: "FullyConnected/W/Adam_1"
  input: "save_3/RestoreV2_42"
  attr {
    key: "T"
    value {
      type: DT_FLOAT
    }
  }
  attr {
    key: "_class"
    value {
      list {
        s: "loc:@FullyConnected/W"
      }
    }
  }
  attr {
    key: "use_locking"
    value {
      b: true
    }
  }
  attr {
    key: "validate_shape"
    value {
      b: true
    }
  }
}
node {
  name: "save_3/RestoreV2_43/tensor_names"
  op: "Const"
  attr {
    key: "dtype"
    value {
      type: DT_STRING
    }
  }
  attr {
    key: "value"
    value {
      tensor {
        dtype: DT_STRING
        tensor_shape {
          dim {
            size: 1
          }
        }
        string_val: "FullyConnected/b"
      }
    }
  }
}
node {
  name: "save_3/RestoreV2_43/shape_and_slices"
  op: "Const"
  attr {
    key: "dtype"
    value {
      type: DT_STRING
    }
  }
  attr {
    key: "value"
    value {
      tensor {
        dtype: DT_STRING
        tensor_shape {
          dim {
            size: 1
          }
        }
        string_val: ""
      }
    }
  }
}
node {
  name: "save_3/RestoreV2_43"
  op: "RestoreV2"
  input: "save_3/Const"
  input: "save_3/RestoreV2_43/tensor_names"
  input: "save_3/RestoreV2_43/shape_and_slices"
  attr {
    key: "dtypes"
    value {
      list {
        type: DT_FLOAT
      }
    }
  }
}
node {
  name: "save_3/Assign_43"
  op: "Assign"
  input: "FullyConnected/b"
  input: "save_3/RestoreV2_43"
  attr {
    key: "T"
    value {
      type: DT_FLOAT
    }
  }
  attr {
    key: "_class"
    value {
      list {
        s: "loc:@FullyConnected/b"
      }
    }
  }
  attr {
    key: "use_locking"
    value {
      b: true
    }
  }
  attr {
    key: "validate_shape"
    value {
      b: true
    }
  }
}
node {
  name: "save_3/RestoreV2_44/tensor_names"
  op: "Const"
  attr {
    key: "dtype"
    value {
      type: DT_STRING
    }
  }
  attr {
    key: "value"
    value {
      tensor {
        dtype: DT_STRING
        tensor_shape {
          dim {
            size: 1
          }
        }
        string_val: "FullyConnected/b/Adam"
      }
    }
  }
}
node {
  name: "save_3/RestoreV2_44/shape_and_slices"
  op: "Const"
  attr {
    key: "dtype"
    value {
      type: DT_STRING
    }
  }
  attr {
    key: "value"
    value {
      tensor {
        dtype: DT_STRING
        tensor_shape {
          dim {
            size: 1
          }
        }
        string_val: ""
      }
    }
  }
}
node {
  name: "save_3/RestoreV2_44"
  op: "RestoreV2"
  input: "save_3/Const"
  input: "save_3/RestoreV2_44/tensor_names"
  input: "save_3/RestoreV2_44/shape_and_slices"
  attr {
    key: "dtypes"
    value {
      list {
        type: DT_FLOAT
      }
    }
  }
}
node {
  name: "save_3/Assign_44"
  op: "Assign"
  input: "FullyConnected/b/Adam"
  input: "save_3/RestoreV2_44"
  attr {
    key: "T"
    value {
      type: DT_FLOAT
    }
  }
  attr {
    key: "_class"
    value {
      list {
        s: "loc:@FullyConnected/b"
      }
    }
  }
  attr {
    key: "use_locking"
    value {
      b: true
    }
  }
  attr {
    key: "validate_shape"
    value {
      b: true
    }
  }
}
node {
  name: "save_3/RestoreV2_45/tensor_names"
  op: "Const"
  attr {
    key: "dtype"
    value {
      type: DT_STRING
    }
  }
  attr {
    key: "value"
    value {
      tensor {
        dtype: DT_STRING
        tensor_shape {
          dim {
            size: 1
          }
        }
        string_val: "FullyConnected/b/Adam_1"
      }
    }
  }
}
node {
  name: "save_3/RestoreV2_45/shape_and_slices"
  op: "Const"
  attr {
    key: "dtype"
    value {
      type: DT_STRING
    }
  }
  attr {
    key: "value"
    value {
      tensor {
        dtype: DT_STRING
        tensor_shape {
          dim {
            size: 1
          }
        }
        string_val: ""
      }
    }
  }
}
node {
  name: "save_3/RestoreV2_45"
  op: "RestoreV2"
  input: "save_3/Const"
  input: "save_3/RestoreV2_45/tensor_names"
  input: "save_3/RestoreV2_45/shape_and_slices"
  attr {
    key: "dtypes"
    value {
      list {
        type: DT_FLOAT
      }
    }
  }
}
node {
  name: "save_3/Assign_45"
  op: "Assign"
  input: "FullyConnected/b/Adam_1"
  input: "save_3/RestoreV2_45"
  attr {
    key: "T"
    value {
      type: DT_FLOAT
    }
  }
  attr {
    key: "_class"
    value {
      list {
        s: "loc:@FullyConnected/b"
      }
    }
  }
  attr {
    key: "use_locking"
    value {
      b: true
    }
  }
  attr {
    key: "validate_shape"
    value {
      b: true
    }
  }
}
node {
  name: "save_3/RestoreV2_46/tensor_names"
  op: "Const"
  attr {
    key: "dtype"
    value {
      type: DT_STRING
    }
  }
  attr {
    key: "value"
    value {
      tensor {
        dtype: DT_STRING
        tensor_shape {
          dim {
            size: 1
          }
        }
        string_val: "Global_Step"
      }
    }
  }
}
node {
  name: "save_3/RestoreV2_46/shape_and_slices"
  op: "Const"
  attr {
    key: "dtype"
    value {
      type: DT_STRING
    }
  }
  attr {
    key: "value"
    value {
      tensor {
        dtype: DT_STRING
        tensor_shape {
          dim {
            size: 1
          }
        }
        string_val: ""
      }
    }
  }
}
node {
  name: "save_3/RestoreV2_46"
  op: "RestoreV2"
  input: "save_3/Const"
  input: "save_3/RestoreV2_46/tensor_names"
  input: "save_3/RestoreV2_46/shape_and_slices"
  attr {
    key: "dtypes"
    value {
      list {
        type: DT_FLOAT
      }
    }
  }
}
node {
  name: "save_3/Assign_46"
  op: "Assign"
  input: "Global_Step"
  input: "save_3/RestoreV2_46"
  attr {
    key: "T"
    value {
      type: DT_FLOAT
    }
  }
  attr {
    key: "_class"
    value {
      list {
        s: "loc:@Global_Step"
      }
    }
  }
  attr {
    key: "use_locking"
    value {
      b: true
    }
  }
  attr {
    key: "validate_shape"
    value {
      b: true
    }
  }
}
node {
  name: "save_3/RestoreV2_47/tensor_names"
  op: "Const"
  attr {
    key: "dtype"
    value {
      type: DT_STRING
    }
  }
  attr {
    key: "value"
    value {
      tensor {
        dtype: DT_STRING
        tensor_shape {
          dim {
            size: 1
          }
        }
        string_val: "Training_step"
      }
    }
  }
}
node {
  name: "save_3/RestoreV2_47/shape_and_slices"
  op: "Const"
  attr {
    key: "dtype"
    value {
      type: DT_STRING
    }
  }
  attr {
    key: "value"
    value {
      tensor {
        dtype: DT_STRING
        tensor_shape {
          dim {
            size: 1
          }
        }
        string_val: ""
      }
    }
  }
}
node {
  name: "save_3/RestoreV2_47"
  op: "RestoreV2"
  input: "save_3/Const"
  input: "save_3/RestoreV2_47/tensor_names"
  input: "save_3/RestoreV2_47/shape_and_slices"
  attr {
    key: "dtypes"
    value {
      list {
        type: DT_FLOAT
      }
    }
  }
}
node {
  name: "save_3/Assign_47"
  op: "Assign"
  input: "Training_step"
  input: "save_3/RestoreV2_47"
  attr {
    key: "T"
    value {
      type: DT_FLOAT
    }
  }
  attr {
    key: "_class"
    value {
      list {
        s: "loc:@Training_step"
      }
    }
  }
  attr {
    key: "use_locking"
    value {
      b: true
    }
  }
  attr {
    key: "validate_shape"
    value {
      b: true
    }
  }
}
node {
  name: "save_3/RestoreV2_48/tensor_names"
  op: "Const"
  attr {
    key: "dtype"
    value {
      type: DT_STRING
    }
  }
  attr {
    key: "value"
    value {
      tensor {
        dtype: DT_STRING
        tensor_shape {
          dim {
            size: 1
          }
        }
        string_val: "is_training"
      }
    }
  }
}
node {
  name: "save_3/RestoreV2_48/shape_and_slices"
  op: "Const"
  attr {
    key: "dtype"
    value {
      type: DT_STRING
    }
  }
  attr {
    key: "value"
    value {
      tensor {
        dtype: DT_STRING
        tensor_shape {
          dim {
            size: 1
          }
        }
        string_val: ""
      }
    }
  }
}
node {
  name: "save_3/RestoreV2_48"
  op: "RestoreV2"
  input: "save_3/Const"
  input: "save_3/RestoreV2_48/tensor_names"
  input: "save_3/RestoreV2_48/shape_and_slices"
  attr {
    key: "dtypes"
    value {
      list {
        type: DT_BOOL
      }
    }
  }
}
node {
  name: "save_3/Assign_48"
  op: "Assign"
  input: "is_training"
  input: "save_3/RestoreV2_48"
  attr {
    key: "T"
    value {
      type: DT_BOOL
    }
  }
  attr {
    key: "_class"
    value {
      list {
        s: "loc:@is_training"
      }
    }
  }
  attr {
    key: "use_locking"
    value {
      b: true
    }
  }
  attr {
    key: "validate_shape"
    value {
      b: true
    }
  }
}
node {
  name: "save_3/RestoreV2_49/tensor_names"
  op: "Const"
  attr {
    key: "dtype"
    value {
      type: DT_STRING
    }
  }
  attr {
    key: "value"
    value {
      tensor {
        dtype: DT_STRING
        tensor_shape {
          dim {
            size: 1
          }
        }
        string_val: "output/W"
      }
    }
  }
}
node {
  name: "save_3/RestoreV2_49/shape_and_slices"
  op: "Const"
  attr {
    key: "dtype"
    value {
      type: DT_STRING
    }
  }
  attr {
    key: "value"
    value {
      tensor {
        dtype: DT_STRING
        tensor_shape {
          dim {
            size: 1
          }
        }
        string_val: ""
      }
    }
  }
}
node {
  name: "save_3/RestoreV2_49"
  op: "RestoreV2"
  input: "save_3/Const"
  input: "save_3/RestoreV2_49/tensor_names"
  input: "save_3/RestoreV2_49/shape_and_slices"
  attr {
    key: "dtypes"
    value {
      list {
        type: DT_FLOAT
      }
    }
  }
}
node {
  name: "save_3/Assign_49"
  op: "Assign"
  input: "output/W"
  input: "save_3/RestoreV2_49"
  attr {
    key: "T"
    value {
      type: DT_FLOAT
    }
  }
  attr {
    key: "_class"
    value {
      list {
        s: "loc:@output/W"
      }
    }
  }
  attr {
    key: "use_locking"
    value {
      b: true
    }
  }
  attr {
    key: "validate_shape"
    value {
      b: true
    }
  }
}
node {
  name: "save_3/RestoreV2_50/tensor_names"
  op: "Const"
  attr {
    key: "dtype"
    value {
      type: DT_STRING
    }
  }
  attr {
    key: "value"
    value {
      tensor {
        dtype: DT_STRING
        tensor_shape {
          dim {
            size: 1
          }
        }
        string_val: "output/W/Adam"
      }
    }
  }
}
node {
  name: "save_3/RestoreV2_50/shape_and_slices"
  op: "Const"
  attr {
    key: "dtype"
    value {
      type: DT_STRING
    }
  }
  attr {
    key: "value"
    value {
      tensor {
        dtype: DT_STRING
        tensor_shape {
          dim {
            size: 1
          }
        }
        string_val: ""
      }
    }
  }
}
node {
  name: "save_3/RestoreV2_50"
  op: "RestoreV2"
  input: "save_3/Const"
  input: "save_3/RestoreV2_50/tensor_names"
  input: "save_3/RestoreV2_50/shape_and_slices"
  attr {
    key: "dtypes"
    value {
      list {
        type: DT_FLOAT
      }
    }
  }
}
node {
  name: "save_3/Assign_50"
  op: "Assign"
  input: "output/W/Adam"
  input: "save_3/RestoreV2_50"
  attr {
    key: "T"
    value {
      type: DT_FLOAT
    }
  }
  attr {
    key: "_class"
    value {
      list {
        s: "loc:@output/W"
      }
    }
  }
  attr {
    key: "use_locking"
    value {
      b: true
    }
  }
  attr {
    key: "validate_shape"
    value {
      b: true
    }
  }
}
node {
  name: "save_3/RestoreV2_51/tensor_names"
  op: "Const"
  attr {
    key: "dtype"
    value {
      type: DT_STRING
    }
  }
  attr {
    key: "value"
    value {
      tensor {
        dtype: DT_STRING
        tensor_shape {
          dim {
            size: 1
          }
        }
        string_val: "output/W/Adam_1"
      }
    }
  }
}
node {
  name: "save_3/RestoreV2_51/shape_and_slices"
  op: "Const"
  attr {
    key: "dtype"
    value {
      type: DT_STRING
    }
  }
  attr {
    key: "value"
    value {
      tensor {
        dtype: DT_STRING
        tensor_shape {
          dim {
            size: 1
          }
        }
        string_val: ""
      }
    }
  }
}
node {
  name: "save_3/RestoreV2_51"
  op: "RestoreV2"
  input: "save_3/Const"
  input: "save_3/RestoreV2_51/tensor_names"
  input: "save_3/RestoreV2_51/shape_and_slices"
  attr {
    key: "dtypes"
    value {
      list {
        type: DT_FLOAT
      }
    }
  }
}
node {
  name: "save_3/Assign_51"
  op: "Assign"
  input: "output/W/Adam_1"
  input: "save_3/RestoreV2_51"
  attr {
    key: "T"
    value {
      type: DT_FLOAT
    }
  }
  attr {
    key: "_class"
    value {
      list {
        s: "loc:@output/W"
      }
    }
  }
  attr {
    key: "use_locking"
    value {
      b: true
    }
  }
  attr {
    key: "validate_shape"
    value {
      b: true
    }
  }
}
node {
  name: "save_3/RestoreV2_52/tensor_names"
  op: "Const"
  attr {
    key: "dtype"
    value {
      type: DT_STRING
    }
  }
  attr {
    key: "value"
    value {
      tensor {
        dtype: DT_STRING
        tensor_shape {
          dim {
            size: 1
          }
        }
        string_val: "output/b"
      }
    }
  }
}
node {
  name: "save_3/RestoreV2_52/shape_and_slices"
  op: "Const"
  attr {
    key: "dtype"
    value {
      type: DT_STRING
    }
  }
  attr {
    key: "value"
    value {
      tensor {
        dtype: DT_STRING
        tensor_shape {
          dim {
            size: 1
          }
        }
        string_val: ""
      }
    }
  }
}
node {
  name: "save_3/RestoreV2_52"
  op: "RestoreV2"
  input: "save_3/Const"
  input: "save_3/RestoreV2_52/tensor_names"
  input: "save_3/RestoreV2_52/shape_and_slices"
  attr {
    key: "dtypes"
    value {
      list {
        type: DT_FLOAT
      }
    }
  }
}
node {
  name: "save_3/Assign_52"
  op: "Assign"
  input: "output/b"
  input: "save_3/RestoreV2_52"
  attr {
    key: "T"
    value {
      type: DT_FLOAT
    }
  }
  attr {
    key: "_class"
    value {
      list {
        s: "loc:@output/b"
      }
    }
  }
  attr {
    key: "use_locking"
    value {
      b: true
    }
  }
  attr {
    key: "validate_shape"
    value {
      b: true
    }
  }
}
node {
  name: "save_3/RestoreV2_53/tensor_names"
  op: "Const"
  attr {
    key: "dtype"
    value {
      type: DT_STRING
    }
  }
  attr {
    key: "value"
    value {
      tensor {
        dtype: DT_STRING
        tensor_shape {
          dim {
            size: 1
          }
        }
        string_val: "output/b/Adam"
      }
    }
  }
}
node {
  name: "save_3/RestoreV2_53/shape_and_slices"
  op: "Const"
  attr {
    key: "dtype"
    value {
      type: DT_STRING
    }
  }
  attr {
    key: "value"
    value {
      tensor {
        dtype: DT_STRING
        tensor_shape {
          dim {
            size: 1
          }
        }
        string_val: ""
      }
    }
  }
}
node {
  name: "save_3/RestoreV2_53"
  op: "RestoreV2"
  input: "save_3/Const"
  input: "save_3/RestoreV2_53/tensor_names"
  input: "save_3/RestoreV2_53/shape_and_slices"
  attr {
    key: "dtypes"
    value {
      list {
        type: DT_FLOAT
      }
    }
  }
}
node {
  name: "save_3/Assign_53"
  op: "Assign"
  input: "output/b/Adam"
  input: "save_3/RestoreV2_53"
  attr {
    key: "T"
    value {
      type: DT_FLOAT
    }
  }
  attr {
    key: "_class"
    value {
      list {
        s: "loc:@output/b"
      }
    }
  }
  attr {
    key: "use_locking"
    value {
      b: true
    }
  }
  attr {
    key: "validate_shape"
    value {
      b: true
    }
  }
}
node {
  name: "save_3/RestoreV2_54/tensor_names"
  op: "Const"
  attr {
    key: "dtype"
    value {
      type: DT_STRING
    }
  }
  attr {
    key: "value"
    value {
      tensor {
        dtype: DT_STRING
        tensor_shape {
          dim {
            size: 1
          }
        }
        string_val: "output/b/Adam_1"
      }
    }
  }
}
node {
  name: "save_3/RestoreV2_54/shape_and_slices"
  op: "Const"
  attr {
    key: "dtype"
    value {
      type: DT_STRING
    }
  }
  attr {
    key: "value"
    value {
      tensor {
        dtype: DT_STRING
        tensor_shape {
          dim {
            size: 1
          }
        }
        string_val: ""
      }
    }
  }
}
node {
  name: "save_3/RestoreV2_54"
  op: "RestoreV2"
  input: "save_3/Const"
  input: "save_3/RestoreV2_54/tensor_names"
  input: "save_3/RestoreV2_54/shape_and_slices"
  attr {
    key: "dtypes"
    value {
      list {
        type: DT_FLOAT
      }
    }
  }
}
node {
  name: "save_3/Assign_54"
  op: "Assign"
  input: "output/b/Adam_1"
  input: "save_3/RestoreV2_54"
  attr {
    key: "T"
    value {
      type: DT_FLOAT
    }
  }
  attr {
    key: "_class"
    value {
      list {
        s: "loc:@output/b"
      }
    }
  }
  attr {
    key: "use_locking"
    value {
      b: true
    }
  }
  attr {
    key: "validate_shape"
    value {
      b: true
    }
  }
}
node {
  name: "save_3/RestoreV2_55/tensor_names"
  op: "Const"
  attr {
    key: "dtype"
    value {
      type: DT_STRING
    }
  }
  attr {
    key: "value"
    value {
      tensor {
        dtype: DT_STRING
        tensor_shape {
          dim {
            size: 1
          }
        }
        string_val: "val_acc"
      }
    }
  }
}
node {
  name: "save_3/RestoreV2_55/shape_and_slices"
  op: "Const"
  attr {
    key: "dtype"
    value {
      type: DT_STRING
    }
  }
  attr {
    key: "value"
    value {
      tensor {
        dtype: DT_STRING
        tensor_shape {
          dim {
            size: 1
          }
        }
        string_val: ""
      }
    }
  }
}
node {
  name: "save_3/RestoreV2_55"
  op: "RestoreV2"
  input: "save_3/Const"
  input: "save_3/RestoreV2_55/tensor_names"
  input: "save_3/RestoreV2_55/shape_and_slices"
  attr {
    key: "dtypes"
    value {
      list {
        type: DT_FLOAT
      }
    }
  }
}
node {
  name: "save_3/Assign_55"
  op: "Assign"
  input: "val_acc"
  input: "save_3/RestoreV2_55"
  attr {
    key: "T"
    value {
      type: DT_FLOAT
    }
  }
  attr {
    key: "_class"
    value {
      list {
        s: "loc:@val_acc"
      }
    }
  }
  attr {
    key: "use_locking"
    value {
      b: true
    }
  }
  attr {
    key: "validate_shape"
    value {
      b: true
    }
  }
}
node {
  name: "save_3/RestoreV2_56/tensor_names"
  op: "Const"
  attr {
    key: "dtype"
    value {
      type: DT_STRING
    }
  }
  attr {
    key: "value"
    value {
      tensor {
        dtype: DT_STRING
        tensor_shape {
          dim {
            size: 1
          }
        }
        string_val: "val_loss"
      }
    }
  }
}
node {
  name: "save_3/RestoreV2_56/shape_and_slices"
  op: "Const"
  attr {
    key: "dtype"
    value {
      type: DT_STRING
    }
  }
  attr {
    key: "value"
    value {
      tensor {
        dtype: DT_STRING
        tensor_shape {
          dim {
            size: 1
          }
        }
        string_val: ""
      }
    }
  }
}
node {
  name: "save_3/RestoreV2_56"
  op: "RestoreV2"
  input: "save_3/Const"
  input: "save_3/RestoreV2_56/tensor_names"
  input: "save_3/RestoreV2_56/shape_and_slices"
  attr {
    key: "dtypes"
    value {
      list {
        type: DT_FLOAT
      }
    }
  }
}
node {
  name: "save_3/Assign_56"
  op: "Assign"
  input: "val_loss"
  input: "save_3/RestoreV2_56"
  attr {
    key: "T"
    value {
      type: DT_FLOAT
    }
  }
  attr {
    key: "_class"
    value {
      list {
        s: "loc:@val_loss"
      }
    }
  }
  attr {
    key: "use_locking"
    value {
      b: true
    }
  }
  attr {
    key: "validate_shape"
    value {
      b: true
    }
  }
}
node {
  name: "save_3/restore_all"
  op: "NoOp"
  input: "^save_3/Assign"
  input: "^save_3/Assign_1"
  input: "^save_3/Assign_2"
  input: "^save_3/Assign_3"
  input: "^save_3/Assign_4"
  input: "^save_3/Assign_5"
  input: "^save_3/Assign_6"
  input: "^save_3/Assign_7"
  input: "^save_3/Assign_8"
  input: "^save_3/Assign_9"
  input: "^save_3/Assign_10"
  input: "^save_3/Assign_11"
  input: "^save_3/Assign_12"
  input: "^save_3/Assign_13"
  input: "^save_3/Assign_14"
  input: "^save_3/Assign_15"
  input: "^save_3/Assign_16"
  input: "^save_3/Assign_17"
  input: "^save_3/Assign_18"
  input: "^save_3/Assign_19"
  input: "^save_3/Assign_20"
  input: "^save_3/Assign_21"
  input: "^save_3/Assign_22"
  input: "^save_3/Assign_23"
  input: "^save_3/Assign_24"
  input: "^save_3/Assign_25"
  input: "^save_3/Assign_26"
  input: "^save_3/Assign_27"
  input: "^save_3/Assign_28"
  input: "^save_3/Assign_29"
  input: "^save_3/Assign_30"
  input: "^save_3/Assign_31"
  input: "^save_3/Assign_32"
  input: "^save_3/Assign_33"
  input: "^save_3/Assign_34"
  input: "^save_3/Assign_35"
  input: "^save_3/Assign_36"
  input: "^save_3/Assign_37"
  input: "^save_3/Assign_38"
  input: "^save_3/Assign_39"
  input: "^save_3/Assign_40"
  input: "^save_3/Assign_41"
  input: "^save_3/Assign_42"
  input: "^save_3/Assign_43"
  input: "^save_3/Assign_44"
  input: "^save_3/Assign_45"
  input: "^save_3/Assign_46"
  input: "^save_3/Assign_47"
  input: "^save_3/Assign_48"
  input: "^save_3/Assign_49"
  input: "^save_3/Assign_50"
  input: "^save_3/Assign_51"
  input: "^save_3/Assign_52"
  input: "^save_3/Assign_53"
  input: "^save_3/Assign_54"
  input: "^save_3/Assign_55"
  input: "^save_3/Assign_56"
}
node {
  name: "Accuracy/__raw_/tags"
  op: "Const"
  attr {
    key: "dtype"
    value {
      type: DT_STRING
    }
  }
  attr {
    key: "value"
    value {
      tensor {
        dtype: DT_STRING
        tensor_shape {
        }
        string_val: "Accuracy/__raw_"
      }
    }
  }
}
node {
  name: "Accuracy/__raw_"
  op: "ScalarSummary"
  input: "Accuracy/__raw_/tags"
  input: "Accuracy/Mean"
  attr {
    key: "T"
    value {
      type: DT_FLOAT
    }
  }
}
node {
  name: "Merge/MergeSummary"
  op: "MergeSummary"
  input: "Loss"
  input: "Adam/Loss/raw"
  input: "Accuracy/__raw_"
  attr {
    key: "N"
    value {
      i: 3
    }
  }
}
node {
  name: "Accuracy/tags"
  op: "Const"
  attr {
    key: "dtype"
    value {
      type: DT_STRING
    }
  }
  attr {
    key: "value"
    value {
      tensor {
        dtype: DT_STRING
        tensor_shape {
        }
        string_val: "Accuracy"
      }
    }
  }
}
node {
  name: "Accuracy"
  op: "ScalarSummary"
  input: "Accuracy/tags"
  input: "Accuracy/Mean/moving_avg/read"
  attr {
    key: "T"
    value {
      type: DT_FLOAT
    }
  }
}
node {
  name: "Merge_1/MergeSummary"
  op: "MergeSummary"
  input: "Loss"
  input: "Adam/Loss/raw"
  input: "Accuracy/__raw_"
  input: "Accuracy"
  attr {
    key: "N"
    value {
      i: 4
    }
  }
}
node {
  name: "Loss/Validation/tags"
  op: "Const"
  attr {
    key: "dtype"
    value {
      type: DT_STRING
    }
  }
  attr {
    key: "value"
    value {
      tensor {
        dtype: DT_STRING
        tensor_shape {
        }
        string_val: "Loss/Validation"
      }
    }
  }
}
node {
  name: "Loss/Validation"
  op: "ScalarSummary"
  input: "Loss/Validation/tags"
  input: "val_loss/read"
  attr {
    key: "T"
    value {
      type: DT_FLOAT
    }
  }
}
node {
  name: "Merge_2/MergeSummary"
  op: "MergeSummary"
  input: "Loss/Validation"
  attr {
    key: "N"
    value {
      i: 1
    }
  }
}
node {
  name: "Accuracy/Validation/tags"
  op: "Const"
  attr {
    key: "dtype"
    value {
      type: DT_STRING
    }
  }
  attr {
    key: "value"
    value {
      tensor {
        dtype: DT_STRING
        tensor_shape {
        }
        string_val: "Accuracy/Validation"
      }
    }
  }
}
node {
  name: "Accuracy/Validation"
  op: "ScalarSummary"
  input: "Accuracy/Validation/tags"
  input: "val_acc/read"
  attr {
    key: "T"
    value {
      type: DT_FLOAT
    }
  }
}
node {
  name: "Merge_3/MergeSummary"
  op: "MergeSummary"
  input: "Loss/Validation"
  input: "Accuracy/Validation"
  attr {
    key: "N"
    value {
      i: 2
    }
  }
}
node {
  name: "init_3"
  op: "NoOp"
  input: "^is_training/Assign"
  input: "^Conv2D/W/Assign"
  input: "^Conv2D/b/Assign"
  input: "^Conv2D_1/W/Assign"
  input: "^Conv2D_1/b/Assign"
  input: "^Conv2D_2/W/Assign"
  input: "^Conv2D_2/b/Assign"
  input: "^Conv2D_3/W/Assign"
  input: "^Conv2D_3/b/Assign"
  input: "^Conv2D_4/W/Assign"
  input: "^Conv2D_4/b/Assign"
  input: "^Conv2D_5/W/Assign"
  input: "^Conv2D_5/b/Assign"
  input: "^FullyConnected/W/Assign"
  input: "^FullyConnected/b/Assign"
  input: "^output/W/Assign"
  input: "^output/b/Assign"
  input: "^Training_step/Assign"
  input: "^Global_Step/Assign"
  input: "^val_loss/Assign"
  input: "^val_acc/Assign"
  input: "^Accuracy/Mean/moving_avg/Assign"
  input: "^Crossentropy/Mean/moving_avg/Assign"
  input: "^Adam/beta1_power/Assign"
  input: "^Adam/beta2_power/Assign"
  input: "^Conv2D/W/Adam/Assign"
  input: "^Conv2D/W/Adam_1/Assign"
  input: "^Conv2D/b/Adam/Assign"
  input: "^Conv2D/b/Adam_1/Assign"
  input: "^Conv2D_1/W/Adam/Assign"
  input: "^Conv2D_1/W/Adam_1/Assign"
  input: "^Conv2D_1/b/Adam/Assign"
  input: "^Conv2D_1/b/Adam_1/Assign"
  input: "^Conv2D_2/W/Adam/Assign"
  input: "^Conv2D_2/W/Adam_1/Assign"
  input: "^Conv2D_2/b/Adam/Assign"
  input: "^Conv2D_2/b/Adam_1/Assign"
  input: "^Conv2D_3/W/Adam/Assign"
  input: "^Conv2D_3/W/Adam_1/Assign"
  input: "^Conv2D_3/b/Adam/Assign"
  input: "^Conv2D_3/b/Adam_1/Assign"
  input: "^Conv2D_4/W/Adam/Assign"
  input: "^Conv2D_4/W/Adam_1/Assign"
  input: "^Conv2D_4/b/Adam/Assign"
  input: "^Conv2D_4/b/Adam_1/Assign"
  input: "^Conv2D_5/W/Adam/Assign"
  input: "^Conv2D_5/W/Adam_1/Assign"
  input: "^Conv2D_5/b/Adam/Assign"
  input: "^Conv2D_5/b/Adam_1/Assign"
  input: "^FullyConnected/W/Adam/Assign"
  input: "^FullyConnected/W/Adam_1/Assign"
  input: "^FullyConnected/b/Adam/Assign"
  input: "^FullyConnected/b/Adam_1/Assign"
  input: "^output/W/Adam/Assign"
  input: "^output/W/Adam_1/Assign"
  input: "^output/b/Adam/Assign"
  input: "^output/b/Adam_1/Assign"
}
versions {
  producer: 22
}
